checkpoint_actor.pth (torch_old, 580451 bytes, 10 tensors)

normalizer.weight f4 [24]
00000000: 7332 3e3f 985e 233f 6050 153f 0b05 193f
00000010: 84bd 7f3f f9f5 713f 5747 d63e 526d 3a3e
00000020: 1209 3a3f 2cf9 943e 5b81 1d3f ff7c 1b3f
00000030: 2a3e 333f ae56 8c3f 15aa 143f 8a45 443f
00000040: 7ffd 563f 2dd3 f33e e4e0 e93e a2e0 843f
00000050: aac3 05bf 27e3 493f 524a 183f 3558 713f
0.7429573 0.63816214 0.5832577 0.5977332 0.9989855 0.9451595 0.41851303 0.18205765
0.7267009 0.29096353 0.61525506 0.60737604 0.7001673 1.0963953 0.58072025 0.7666861
0.83980554 0.47622052 0.4567939 1.0381052 -0.52251685 0.7886223 0.59488404 0.9427522

normalizer.bias f4 [24]
00000000: 86ae 963d 8ef5 8bbc bbd2 b1bd eb1f 7d3d
00000010: 5761 5b3b cf0c f63d e75c a2bd fb59 803d
00000020: ffb5 2d3d 3923 44bd 414c 75ba 10e2 a93c
00000030: bdc7 a7bb cbd4 3b3e 56a4 13bd 24a5 9a3c
00000040: 51e9 f83c 649b 993a f6da 2fba fb75 e03c
00000050: ee1e c33c cace e93d bc05 c5bc 96e1 cebb
0.073575065 -0.017084863 -0.08682772 0.061798017 0.0033474767 0.12014162 -0.07927876 0.062671624
0.042409893 -0.047885153 -0.0009357371 0.020737678 -0.005120246 0.18342893 -0.036045395 0.018877573
0.030384691 0.0011719284 -0.0006708348 0.027400007 0.02381846 0.11416395 -0.024050586 -0.006313513

normalizer.running_mean f4 [24]
00000000: 127d 02c1 403a 2abf 5216 6540 dd8a f6bd
00000010: beca 41bd e5b9 8540 5216 6540 dd8a f6bd
00000020: 1bf8 02c1 fc0b 2cbf 6cce 5a40 4cf9 e8bd
00000030: e599 23bd 13e8 8540 6cce 5a40 4cf9 e8bd
00000040: 935c 03c1 e5c4 2cbf 477e 5d40 2937 82bd
00000050: bd7a 11bd 8d3d 8640 477e 5d40 2937 82bd
-8.155535 -0.6649513 3.5794873 -0.12038205 -0.04731249 4.178942 3.5794873 -0.12038205
-8.185573 -0.67205787 3.418849 -0.113756746 -0.039941687 4.1845794 3.418849 -0.113756746
-8.210101 -0.6748794 3.4608324 -0.06358177 -0.035517443 4.1950135 3.4608324 -0.06358177

normalizer.running_var f4 [24]
00000000: c4e5 7641 607d 8a3f b57e 9b43 fffb 7341
00000010: 39cf d441 baca fa3f b57e 9b43 fffb 7341
00000020: 775a 7541 cb1b 8b3f 2f96 9a43 f540 7441
00000030: e298 d541 0e4f f93f 2f96 9a43 f540 7441
00000040: b3c0 7241 037a 8b3f ea65 9943 34d0 7241
00000050: a55f d641 3f5c f63f ea65 9943 34d0 7241
15.431095 1.0819511 310.9899 15.2490225 26.601183 1.9593117 310.9899 15.2490225
15.334586 1.0867857 309.1733 15.265859 26.69965 1.947725 309.1733 15.265859
15.172046 1.089661 306.7962 15.175831 26.796701 1.9246901 306.7962 15.175831

fc1.weight f4 [512, 24]
00000000: a055 65bc 9469 dbbc 2260 6dbd bc56 05bd
00000010: e73d 92bc 34d1 8fbd 882a ba3c 1134 9ebd
00000020: 61f4 2b3d cbf4 053e 7d51 ab3c 186e ffbc
00000030: 5297 313e e6cf b7bd 468c b139 3982 ffbc
00000040: 4f29 983c 81ba d13d 64b6 543c e65b c5bc
00000050: 8209 01bf 30fb 99bd 546c 2ebd f334 223d
00000060: 3352 b43d f496 0a3d c13a 343d 3981 fcbd
00000070: d33e 61bd c627 44be ec2d ba3d e849 1ebe
00000080: 5f91 313d d078 1b3d bced f2bc ad03 3b3d
00000090: e85d 623e a3b9 8dbc c83c 2abc ef97 b53d
000000a0: 7a79 9a3d ea06 523d 1910 2b3e f7fc 273d
000000b0: 77b0 03bf 26ce 183e 3ab2 153e a154 a43c
000000c0: 355e b9bd 29fb 92bd ba03 c6bc 2768 4d3a
000000d0: fbbb bd3d 0ec5 1dbd d9f0 60bc 3fc2 933d
000000e0: 432d 68bd 8ac6 56bd 196b 08be 7586 86bc
000000f0: 026d 333d 69ed 2d3c f70b 12be 64b0 29bd
00000100: 59c0 03be 47d9 59bd 4714 8d3b a52f f3bd
00000110: 5e25 ce3d b1a9 b5bc 33c1 c13c 418a adbd
00000120: ffe6 c4bd b332 4abd 1259 c1bd f372 bbbb
00000130: 6f00 1a3b 3581 63bd 0c3d 07bd 7800 d43b
00000140: 8903 e5bd 7441 393d bd0c 9ebd db96 813c
00000150: 725b 593e db0b b1bd 7d84 81bd 792e a63c
00000160: bbd3 42bc 3374 863d 7a4e 13be 8e71 213d
00000170: 8d77 b9be a9c6 9cbd 733d 84bd 0916 1e3d
00000180: bf4a b1bd 53ab 09bd 4ed2 b3bb 2c37 38bd
00000190: 7336 5bbd 007b b3bd 9a55 183c afaa c4bc
000001a0: 0216 39bd 11f5 883d 89a3 9cbd 5c18 c7bc
000001b0: de2b b13d 2eb4 23be 5638 a8bd 1943 54bd
000001c0: 47aa 78bd 0808 be3d c42a 01be 6d4a cc3c
000001d0: 5755 a1be d275 68be 10ae acbd f1d4 243d
000001e0: 7757 e2bd 7ed4 ebbd 8aef c93b 9fc8 9d3c
000001f0: 03c1 703e 319f 263e 4f5a 363d 851d b43d
00000200: 8fda afbd 46a9 8abc 0bcc ec3b c946 fd3d
00000210: c84b 193e c748 3f3c 1867 79bc a168 d63d
00000220: 0b07 aabd 7acf efbc 9ec9 f9bd 3769 d03c
00000230: f08f 0ebe b124 08be 4bca 0cbe 0209 723d
00000240: 981b 1ebc 81fa 713e 5254 423d bdd9 643e
00000250: b180 98bd 36cd cb3d 650d 0f3d 2bb2 443e
00000260: 74a5 49bb 5f81 853e 3855 0cbe f1af 573d
00000270: ab13 9b3d b3cc b93d 81f4 d0bd 9613 f73d
00000280: 788a 163d f183 6f3e ac4f 96bd bdf7 14bd
00000290: baef 76be 3116 8b3d e203 c6bd 607d 32bd
000002a0: ac33 b03c 39e6 5dbe f76e 0e3e f6fb b9bd
000002b0: c32b d03d eac9 033c 42d9 263e 0254 42bd
000002c0: 8edf 233d f6cf abbd 31c7 53bd 3e34 ba3c
000002d0: 7d9b 763d ab27 50bc 52b2 46bd 39a5 2b3d
000002e0: a210 9f3d af35 dabd 7828 273e bf21 86bd
000002f0: 98aa a7bd 31aa d3bc 07f7 313e c940 ebbc
00000300: 2038 b23c 4d84 a03d 3f84 a6bd 43d3 a33b
00000310: 1e3b 23be f12c 1abd 1074 b1bc 3a22 963a
00000320: f259 cbbb a0fc debc e8e0 adbd 0800 3b3c
00000330: 6a5f 23be 9777 49bd c605 15bd 2033 16bd
00000340: d40b cf3b 91d5 e93c fded b53c 59c1 9a3c
00000350: c9ca bd3d 8658 1abe 9c7c 203d 76ef b43c
00000360: e1ea 033e f33e 6f3d f9fb 883d fa62 5cbe
00000370: 2e09 7f3d cc86 9e3c 9e5f d23c 5b6e 2abe
00000380: ee2e 9dbc cd71 cdbd 52f9 9c3b 323a 53be
00000390: 8f22 b83c ab2f 2f3e d65f a0bb e589 74be
000003a0: b2c7 a0bd 0b04 2cbe 3bbe 86bd 98f6 68bd
000003b0: 1198 c43d c641 453e 67f3 b8bd 791e 2ebd
000003c0: 0cb4 2d3e 656f 8a3a b9ea 1cbd b372 54bc
000003d0: 2444 d63d c0bc d7bd 774e 1fba b21c 463d
000003e0: 52fb 2b3e 9f6f 323d 1e1c 8bbd 59f3 24bd
000003f0: ae39 393d e19f ebbd dead 5bbd 6b7e 6a3c
-0.013997465 -0.026783742 -0.057953008 -0.03255342 -0.017851783 -0.07022324 0.022725359 -0.07724775
0.041981105 0.13081662 0.02091288 -0.031180426 0.1734288 -0.089752 0.00033864583 -0.031190025
0.018574385 0.10240651 0.012982938 -0.024091672 -0.5040513 -0.07518613 -0.04258378 0.039601278
0.08804741 0.033835366 0.044001345 -0.12329335 -0.054991554 -0.19155797 0.0909079 -0.1545788
0.043351527 0.037957013 -0.029654376 0.045657802 0.22106135 -0.017300433 -0.010390468 0.0886687
0.07542701 0.051276125 0.1670536 0.04101273 -0.5144114 0.1492239 0.1461877 0.020059885
-0.09051172 -0.07176811 -0.024171699 0.00078356493 0.0926437 -0.038518004 -0.013729298 0.07214784
-0.05668379 -0.052435435 -0.13322105 -0.016421536 0.04380513 0.010615685 -0.14262377 -0.041427985
-0.12866344 -0.053185727 0.0043053958 -0.11874322 0.10065721 -0.022175642 0.023651695 -0.084736355
-0.096143715 -0.049364757 -0.09440817 -0.00572049 0.0023498794 -0.055543143 -0.033017203 0.0064697824
-0.11182315 0.045228437 -0.077172734 0.015819004 0.2122629 -0.086448394 -0.06324098 0.020285832
-0.011891301 0.06565132 -0.14385405 0.039414935 -0.36224023 -0.07655079 -0.06457033 0.038595233
-0.08656835 -0.033610653 -0.0054877168 -0.04497449 -0.053518724 -0.08763695 0.009297753 -0.02400717
-0.045187004 0.06687368 -0.07648379 -0.024303608 0.08650945 -0.15986702 -0.0821387 -0.0518218
-0.060709264 0.092788756 -0.1261397 0.024937833 -0.31510422 -0.22701195 -0.08431637 0.04024214
-0.11051839 -0.11515139 0.0061625885 0.019260703 0.23511128 0.16271664 0.04451972 0.08794693
-0.085866086 -0.016926419 0.0072264723 0.12367017 0.14970315 0.011675066 -0.015222333 0.10469175
-0.083021246 -0.029273737 -0.121966586 0.025440795 -0.13922095 -0.13295247 -0.13749044 0.05909062
-0.009650134 0.23630716 0.047443695 0.22348686 -0.07446421 0.0995125 0.034924883 0.1920859
-0.0030768784 0.26075265 -0.13704383 0.052658025 0.07572111 0.090722464 -0.102028854 0.120642826
0.036753148 0.23390175 -0.07339415 -0.036369074 -0.24114886 0.06791342 -0.09668709 -0.0435766
0.021509014 -0.21669854 0.13909517 -0.09081261 0.10164597 0.0080437455 0.16293815 -0.047443397
0.04000812 -0.08389275 -0.051703636 0.02272999 0.06020688 -0.01270477 -0.048509903 0.041905615
0.07766844 -0.106547706 0.16324031 -0.06549405 -0.08186835 -0.02583799 0.1737939 -0.028717415
0.021755278 0.07837734 -0.08130693 0.0049995496 -0.1594052 -0.037640516 -0.021661788 0.0011454292
-0.0062057907 -0.02722007 -0.08490163 0.011413582 -0.15954366 -0.049186315 -0.03638246 -0.03666985
0.0063185487 0.02854422 0.022208208 0.018891023 0.09267194 -0.15072832 0.039181337 0.02208684
0.12882568 0.058409642 0.06688685 -0.21522132 0.062264614 0.019351386 0.02568036 -0.1664366
-0.019187417 -0.100314714 0.0047904635 -0.20627668 0.022477416 0.17108028 -0.004894237 -0.23880728
-0.07850589 -0.16798417 -0.06579252 -0.056875795 0.09599317 0.19263372 -0.090308 -0.04250953
0.16963214 0.0010561763 -0.038309786 -0.0129668 0.104622155 -0.10534048 -0.0006077061 0.04836721
0.1679509 0.04356348 -0.06792472 -0.040271137 0.045221023 -0.11505104 -0.05363261 0.014312367

fc1.bias f4 [512]
00000000: 10a6 043e 3906 ab3d 7f81 833d 0c6b 413e
00000010: 1d56 d73d 65f0 bc3c e082 c2bd f7bb d7bd
00000020: 5c5d bb3c 4d01 c93d ccb4 e0bb 459d 5d3e
00000030: fce1 4c3e a00f cbbc 1c0c ab3c 9550 9c3d
00000040: 4c12 42be 6c82 33be 555f ae3e c885 4bbd
00000050: 2924 253e 528c 153d 5b2f f03a 957a ccbd
00000060: 9698 5e3d d903 25be 5a8c 82bb b18e a4bd
00000070: 499d 90bd 6f63 94bd a5c5 5abd de05 1dbe
00000080: 317f 413e 8d21 ee3d 70ae a43d cb4a 0d3d
00000090: ba7a 0bbe d8a7 203e d70a 17be fcdd a43d
000000a0: 0d4c dfbd 0edf b03d 7f8d 823d dd18 33be
000000b0: 0805 19be b90c 2a3e 99b2 4f3d 1130 b63d
000000c0: c9e7 80bd 39b3 4b3e 8b71 3abe 3468 41be
000000d0: c52b febd 0c34 1d3d 60fa 293e 0c85 1e3e
000000e0: 535a ac3d 3639 12bd c4cc 933c 3651 1f3d
000000f0: b349 393e 5532 503d 0de4 cfbd f616 163e
00000100: 08d7 bdbc be42 633d 549d d9bd c727 9a3d
00000110: 4889 91bd 51c4 3e3d fe7d 68bc 1b63 f8bd
00000120: 983a abbd 50e3 223e e32d 053d 6b06 453e
00000130: d606 a53d 96b8 1ebc ae65 15bd 1992 3b3c
00000140: aad0 34be 94a7 803d 8b25 b53c 3e78 b33d
00000150: f1f0 d23d 582f fc3d 41ed 4dbe c5fc 17be
00000160: 24e3 afbd b9b9 633e e4bb 533e 5bd3 cf3d
00000170: b636 5c3e 75f4 123e ca2a 0e3d 4c13 fd3c
00000180: ea66 2ebc c455 ffbc 3fc5 1f3d 07c6 d5bc
00000190: 786c 46be 44cd f63b 2a6f 42be c99f 683e
000001a0: ac86 363e 3dff e3bd 2f90 5dbd 142b 8f3e
000001b0: 61a9 ae3d 8a2e ca3d ff63 48bd efb9 1c3e
000001c0: 08bf 843e b26d 8c3c e5a9 bd3d 033b 2ebd
000001d0: 43f3 12bc 4eae 303e 97e8 083e 28d3 1fbe
000001e0: 1800 a03a 8c77 c33d 13b9 83bd ca16 20be
000001f0: 94eb a23d 8dd4 3cbe 0911 1cbe d39c ecbb
00000200: 2410 83be 2d72 783b e36a 853d ed1d 343d
00000210: a507 1f3e 253a 03be 9c06 803d aa80 6ebe
00000220: 2366 103e 7e93 ddbd 4594 c7bd fdda 9cbd
00000230: 3540 2abe bfac 043d edeb 4d3e 27a8 9d3d
00000240: d12e 0b3c 4fa2 e13d 84c1 ecbb 4e7a ab3c
00000250: 7764 56bd 027d b0bd 8e95 44be 9888 5dbe
00000260: 6072 953d aaac 4fbe d65b e5bc 47cd 383d
00000270: f2d1 833d c357 c6bd 681d 403d 665b 0d3e
00000280: c528 df3d 0d14 f93d 790f eebd ac7d e73c
00000290: 7e4c 8abe f761 3abc dc27 bb3c 0228 e7bd
000002a0: 0c19 043e 596b 643d 4411 003e 1369 8a3d
000002b0: fd24 a03d 5835 44bd 699a 0fbe 9126 343e
000002c0: 438d 46be 00fe 153d 1d94 78be 78fb adbd
000002d0: f841 fbbc d5c8 483d fde5 1a3e 910a 11be
000002e0: 7d93 603d d930 4b3d 7e60 a13d d631 3b3e
000002f0: eefb 713e 6607 513d 4b2e 7c3d bac1 693d
00000300: 2d0d 04be 80fe d73d 49bb 38bd cc25 90bb
00000310: 027f 5d3e 1dc0 68bd 88e4 653e 8df7 71be
00000320: 473b 373e 3890 79bd f6e6 67bd bb73 113c
00000330: c416 8fbd 09d2 1b3d 0ecc 52be ba30 1c3e
00000340: d1ba 663e dd87 003e 106f bebd aaa8 d63d
00000350: e90f 883e 147c e83d b4ff 0cbe ccfc 81bd
00000360: 9d75 e9bb 1c22 debd 0f99 0b3d 32fc e43d
00000370: 8c6c f6bc 6475 1cbe 105a 8c3d 4997 2e3d
00000380: b848 5e3e 01f8 68be 6e4c 3cbe a334 b1bd
00000390: ffa5 7d3e b8bc 193e 8260 3b3d d1a7 8c3d
000003a0: a849 783e e8e0 b43d eafc cb3d 793d 19be
000003b0: d517 4e3c a354 e7bb acf8 ce3d bfaf 5a3d
000003c0: ee93 b73d cadf 1cbd 0015 703e 77b5 c1bd
000003d0: 4c39 ccbd c731 ab3e 3a98 86bb 4b98 42bd
000003e0: e398 393a 76be 473e 1676 a4bd f9d6 dcbc
000003f0: 0e3b 85bd 8212 0f3e 92aa 053d 521a 47be
0.12953973 0.08350796 0.06421184 0.18888491 0.10514472 0.023063848 -0.09497619 -0.10533898
0.022871666 0.09814701 -0.00685749 0.21642025 0.20008081 -0.024787724 0.020879798 0.07632557
-0.18952292 -0.17530221 0.34057108 -0.04968813 0.16127075 0.036510773 0.001832466 -0.09984318
0.054344736 -0.16114749 -0.0039840164 -0.08035029 -0.0706125 -0.07245528 -0.053411145 -0.1533427
0.18896176 0.11627493 0.08041084 0.034495156 -0.13621035 0.15689027 -0.14750229 0.08050153
-0.109031774 0.08636294 0.063746445 -0.17489953 -0.14943326 0.16606416 0.050707433 0.08895887
-0.062942095 0.19892587 -0.18207376 -0.18887407 -0.12410692 0.038379714 0.16599417 0.15480441
0.084156655 -0.03569909 0.018041976 0.03889581 0.1809452 0.05082925 -0.10150919 0.14657196
-0.023173824 0.055483572 -0.10625711 0.07527118 -0.071062624 0.04657394 -0.014190195 -0.12128278
-0.08360785 0.15907025 0.032514464 0.1924073 0.080579445 -0.009687563 -0.036473922 0.011448407
-0.17657724 0.06281963 0.022112628 0.08763169 0.10299862 0.123137176 -0.20110036 -0.14842518
-0.085882455 0.22238816 0.20677143 0.10147735 0.21505246 0.14351065 0.034708776 0.03089299
-0.010644654 -0.031168826 0.039006468 -0.026095403 -0.19377315 0.007531794 -0.18987718 0.22717203
0.1782481 -0.11132667 -0.054092582 0.27962554 0.085284 0.09872158 -0.04892349 0.15305303
0.25926995 0.01714215 0.092609204 -0.042536747 -0.008969131 0.17253992 0.13369976 -0.15607893
0.0012207059 0.09544286 -0.064317845 -0.15633693 0.07955089 -0.18440457 -0.15240873 -0.0072208433
-0.25598252 0.003790985 0.06514528 0.043973852 0.1553026 -0.12815149 0.06251261 -0.23291269
0.14101462 -0.108191475 -0.09745077 -0.07658956 -0.16626056 0.032391306 0.2010953 0.07698088
0.008495049 0.11017286 -0.0072252173 0.020932343 -0.052341904 -0.08617593 -0.19197676 -0.21634138
0.07297206 -0.2028071 -0.027997892 0.045117643 0.06436528 -0.09684708 0.046903044 0.13804397
0.10896448 0.121620275 -0.11624045 0.028258167 -0.27011484 -0.011375896 0.022846155 -0.11286928
0.1290018 0.055766437 0.12506586 0.067583226 0.07819555 -0.047902435 -0.14023747 0.17592837
-0.19389825 0.036619186 -0.2427525 -0.084952295 -0.030671105 0.049019653 0.15126796 -0.14164187
0.054828156 0.04960713 0.078797325 0.1828073 0.2363126 0.051032446 0.061567586 0.057069518
-0.12895651 0.10546589 -0.045100484 -0.004399037 0.21630481 -0.05682384 0.22450459 -0.2362959
0.17893706 -0.060928553 -0.056616746 0.00887769 -0.06986764 0.038042102 -0.20585653 0.15252963
0.22532202 0.12551828 -0.09298527 0.10481389 0.26574638 0.11351791 -0.13769418 -0.06347045
-0.0071246163 -0.108463496 0.034081515 0.11180915 -0.030081056 -0.15279156 0.068531156 0.042624746
0.21707428 -0.22750856 -0.1838853 -0.08652618 0.24770354 0.15013397 0.045746334 0.06867946
0.24246848 0.0883196 0.09960349 -0.14964856 0.012578924 -0.00705965 0.10106024 0.05339026
0.08963762 -0.03829936 0.23445511 -0.0945844 -0.09971866 0.33436415 -0.0041075023 -0.04750852
0.0007079972 0.19506249 -0.080303356 -0.026957976 -0.065054044 0.13971904 0.03263337 -0.19443634

fc2.weight f4 [256, 512]
00000000: 3a60 263e 308e 833e d35f a43c ee1c 233e
00000010: 3bae 053e deb8 1bbe e768 82bd 3676 cbbd
00000020: e9ca 063d 2023 91bc 3343 59bd 44ed 173d
00000030: 89ba ae3e e2de af3a 1c48 873c c473 b93d
00000040: 3a83 043e 3112 d33d 7c06 953e ebc2 173e
00000050: 6220 7c3e 3188 61bd 6cba 4d3d fc11 023c
00000060: c835 b03d d3cf 3cbd 4c67 2ebd eb05 8bbd
00000070: 4079 cbbc 7e5e 453a 6065 b83d 68fd ff3d
00000080: 325a 963b 9b7e 923d cd1d 03bd 8a44 0bbc
00000090: f111 57bc 920d 843d 1688 f3bd cd65 f53d
000000a0: e3e8 983c 7868 fabc 1fa1 c43d 97f2 51bd
000000b0: 8ec1 103e 171a d13d 2bba 3b3c c768 40bc
000000c0: 8d14 c73d 2a29 343e fc2c dc3d ff03 5ebc
000000d0: bb88 b03d a0ef cebc 5d9e 8cbc 7b50 6b3e
000000e0: 0cf7 443c c914 b03d 6737 003d 157d 0d3e
000000f0: f05f 1e3e 7adf c03d 7b04 1e3e c2b7 2c3e
00000100: 6f6b 2f3e 44f2 89bd 4718 f0bd 0d7c 82bd
00000110: 42d7 1bbe bb62 34bc f144 28be 9ebb b43d
00000120: 1bf3 0dbc db87 763d a968 8dbb 3522 fb3d
00000130: 2d14 343d d8e5 34bd 0c79 81bd 50fd b73c
00000140: 2d22 8bbd f01a 01bd 2d93 613d c0e7 7a3a
00000150: e3b0 f33d a087 cf3d c704 2dbd 5271 ccbd
00000160: 291f b43d c311 1d3e 8261 eb3d ba80 afbd
00000170: dfa7 743d 5c7c 773d 4d3d dabc 34d2 e93d
00000180: e4d4 8fbd 8e3d 8d3d 4443 abbd 3bc0 b6ba
00000190: ee2b 223b 6cfe 623c 46fa 403d 6aaa 0bbd
000001a0: e1e1 093e e6e2 84be 4084 2bbc 691c 213d
000001b0: f640 4b3e 917a c13d c2e1 003d 78b8 b5bd
000001c0: e9d8 a0bd be0a c0bc d464 283d 498f f33d
000001d0: dfcb a5bd 7f8f 553e ba9b 1e3e 7366 863d
000001e0: 8695 0b3e 9716 863d 938f 48bd def4 d6bd
000001f0: 0265 943d 8c0b 203d 342c 29be 7fe2 fcbd
00000200: be63 1fbd c3f8 133e adc6 06bd d795 c3bd
00000210: 8d09 d93d 26bb ed39 4dd2 3a3e ffd4 903d
00000220: bf3e 2c3d 4b7d 843d da77 563d 9f33 b3bd
00000230: be03 ddba 384f f73c 0dfa 76bc b510 033d
00000240: aecb 86bc 828d 693d ed2d 203d d622 c73b
00000250: f781 6f3c 4036 4dbe f913 3a3e 6bfb f63c
00000260: 3fc4 afbd 46b8 2cbe fae4 4b3e 6dfa 19bd
00000270: cbb5 84bd c2ea 45be c03d cb3d e420 8e3d
00000280: 10f3 913d 957e 4d3e 5960 9bbd ecb2 ca3d
00000290: 5e1e 23bd 9b85 61bd 2bcc 5cbe 9ce1 b43d
000002a0: 93e6 94bd 3508 a83d e439 1c3e 5097 f93c
000002b0: 0fc4 8a3d d6b2 953d e30d 223e 3ab8 d93d
000002c0: 8c10 3b3c 63c6 1fbe dff4 1d3e d550 9b3d
000002d0: 4beb c6bd 1299 4a3d da35 263b dd8c cdbc
000002e0: 0dc0 543e 077d 1e3d b20d 083e 5dd3 c23d
000002f0: 7e4c 933c 4755 643e 93cc 9abc 509b 103e
00000300: ba6a cd3d 2138 033d 0b8a fbbc c6e0 eabd
00000310: fcef 5b3c 6741 90bd e43b 04bd 91dc 2c3e
00000320: c2cb 863c 0a26 e5ba aa9d a5bb 1a1e 05bd
00000330: 7c2d eb3c 8f1d 9b3d 8817 9fbe 79ee d43d
00000340: 1d67 2a3e c7a7 943d c385 513d 2b74 003e
00000350: e9ba 983e 7e13 bb3d 9a8a 3abd 40d3 fdbb
00000360: 68ca 493e cb53 4c3d 48d1 8b3d 9c15 593d
00000370: f4e1 93bd 0b71 a5bd 7327 93bc cc8d d1bd
00000380: 8ecd ab3d 33e5 8dbd 38bb bf3e e31f f43c
00000390: be04 d73c 9168 56bd 076e 093e 1a0f 043e
000003a0: fbfa 533e ee40 053d ce08 643d ce86 d13c
000003b0: cba5 403d da80 803e adea c63d 0036 1cbb
000003c0: ba1c 063e 6cd8 273e 4835 913e edc0 a7bd
000003d0: d19a 713d 4456 c23d 3e37 abbd 9e03 ae3d
000003e0: b0c3 743d ca71 5b3d ff93 c0bd 0638 b7bd
000003f0: 4cac 9e3c df55 203e 1a37 f63c c561 18bd
0.16247645 0.25694418 0.020065224 0.15929005 0.13054745 -0.1520724 -0.06367665 -0.09934656
0.032908354 -0.017716944 -0.0530426 0.03709151 0.3412669 0.0013417865 0.016513877 0.09055284
0.12940684 0.10306204 0.2910651 0.14820449 0.24621728 -0.055061523 0.050226614 0.007938858
0.08604008 -0.046096634 -0.04257898 -0.06788238 -0.02483809 0.0007529034 0.09003711 0.12499505
0.004588389 0.07153054 -0.032010842 -0.008500228 -0.013126836 0.06447901 -0.11891191 0.119823076
0.018665737 -0.030567393 0.09601044 -0.051256742 0.14136335 0.10210054 0.01145796 -0.011743731
0.097207166 0.17593828 0.107507676 -0.013550757 0.08619829 -0.025260746 -0.017165357 0.2297992
0.012021791 0.085977145 0.031302836 0.13817246 0.15466285 0.09417625 0.15431397 0.16866973
0.17130826 -0.067356616 -0.117233805 -0.06371317 -0.15218833 -0.011009867 -0.16432549 0.08824848
-0.008663918 0.060188156 -0.004315455 0.12262384 0.043964554 -0.04416451 -0.06321916 0.022459656
-0.06793628 -0.03151983 0.055072 0.00095712766 0.11898973 0.1013329 -0.042240884 -0.09982552
0.08795006 0.15338807 0.114932075 -0.085694745 0.059730407 0.060421333 -0.026640559 0.11417046
-0.070230275 0.06896506 -0.08362439 -0.0013942787 0.0024745422 0.013854604 0.04711368 -0.034098066
0.13465072 -0.2595436 -0.010468543 0.039333735 0.19849 0.09447206 0.0314653 -0.08873075
-0.07853872 -0.023442622 0.041111782 0.11892564 -0.08095526 0.2085552 0.15489092 0.065625094
0.13631257 0.065472774 -0.048965048 -0.104959235 0.07245828 0.039073512 -0.16520768 -0.12347888
-0.03891348 0.14450364 -0.032904316 -0.09550064 0.10597525 0.000453436 0.18244286 0.07071876
0.042052027 0.0646921 0.052360393 -0.0875008 -0.0016862077 0.030189142 -0.015074265 0.031998355
-0.016454544 0.057019718 0.0391063 0.006077151 0.014618388 -0.20040226 0.18171681 0.030149182
-0.08582353 -0.1686717 0.19911566 -0.03759234 -0.06479987 -0.19327834 0.09923887 0.06939867
0.071264386 0.20067818 -0.07586736 0.09897408 -0.039823882 -0.055059057 -0.21562259 0.08832094
-0.07270541 0.0820469 0.15256459 0.03046766 0.067756765 0.07309501 0.1582561 0.106308416
0.011417519 -0.15603022 0.15425442 0.07583777 -0.09712847 0.049462385 0.0025361688 -0.025091583
0.20776387 0.038693454 0.13286474 0.095129706 0.01798081 0.22298156 -0.018896377 0.14121747
0.10030122 0.03203595 -0.030705472 -0.114686534 0.013423916 -0.070437245 -0.03228368 0.16881014
0.016454581 -0.001748265 -0.0050541954 -0.03249941 0.028708212 0.07573997 -0.3107264 0.103970475
0.16640897 0.072585635 0.051152956 0.12544315 0.298301 0.09134577 -0.045542337 -0.00774613
0.19706118 0.0498846 0.068270266 0.052999124 -0.072208315 -0.08078202 -0.017963147 -0.10232124
0.08388816 -0.06928482 0.37447524 0.029800361 0.026247378 -0.052345816 0.13420878 0.12896386
0.2070121 0.032532625 0.05567246 0.025576975 0.047033112 0.25098306 0.097127296 -0.0023835897
0.13096896 0.16391152 0.28360963 -0.081910945 0.058985535 0.0948911 -0.08360146 0.08496784
0.059756935 0.053575315 -0.09403228 -0.089462325 0.019369267 0.15657757 0.030055571 -0.037202615

fc2.bias f4 [256]
00000000: f002 893d b7ae 3e3c 1dc4 08bd e9d3 123c
00000010: 74eb eb3c e08c 213c 0b05 993d 60e5 05bd
00000020: c171 de3d a328 e03c 20bc 333d 3e0e 213c
00000030: 4f4c 0f3d 02ef 103d f844 6f3d fcb3 7e3d
00000040: 2a6c f2bc a863 573d 37fe d63d e69a fb3d
00000050: 2e41 743c 5db7 593d e2f6 883d b055 73bc
00000060: 0fb7 bd3a 7aae 493c bc93 fbbb cf48 f1bc
00000070: c837 cb3b 504c 093d 7f6f 31bb c9b7 593d
00000080: bdaa 27bd cd42 3e3d 4643 803d 2526 993d
00000090: 8974 b53c e93e d93c e1f2 933c 42b2 523c
000000a0: bb49 403d 844c 12bd 3b70 5f3d 052d 05bd
000000b0: 9ead 793d dd24 23bd dd67 f43c 8211 c53d
000000c0: 46ac 213d f2cb 003e baa1 973c 3427 6d3d
000000d0: 1a98 bb3d b8fb 9a3b 1d3f 893d 9e4b 8c3d
000000e0: cec1 73bc 297b cf3d 6301 15bc a2dd 073d
000000f0: 5a1e 513d 0630 bd3d b4ef a3bc 1e2c 533d
00000100: d29f 1d3d d7c0 ea38 fb87 033d 798c 4b3d
00000110: ae68 e03c d898 a63d f43c 7a3c 3890 833d
00000120: dc64 293a 47ef a9bc e54a 9e3d 2f35 7c3b
00000130: 0b4f e5bc ee3a df3c 6c0a 85bb 2823 ba3d
00000140: 84ef ac3d 7222 953d 485c 3b3d 5e2b 133d
00000150: 2c41 55bd 2fed 313d 7349 653c abdf cc3c
00000160: 87ee 973d 7ed5 bf3c 0ac1 903d 4923 1d3d
00000170: 6ae5 93bd a38b 643d 520d 233c ca11 013d
00000180: adb5 133d 817a 5c3d 91ba bebc fba5 533d
00000190: 2966 983d 5d52 1ebc 2788 1dbc 95fd ed3c
000001a0: 4fea dd3d ab93 9e3d 521c 113d b5b6 663d
000001b0: 3066 8cbc 9b0b af3d f6b0 09bb 5a00 9d3d
000001c0: 298c 973d 16d7 763d 6e94 5d3c 3be0 98bc
000001d0: 2ea3 1fbd 0214 bd3d ba9f 853c 3a5f 5bbd
000001e0: 07e7 7e3d b974 edbb 69a9 bd3d 1757 5e3d
000001f0: dc03 82bc ae55 633d 9a18 c53d cb5e c33d
00000200: 20d1 173c 475a 753d 0c0c b93d 8b24 743d
00000210: ffc4 9e3d 6c13 03bc 57a7 7f3d 2784 ad3c
00000220: c335 c33d ad71 ec3c 044d 193d 947f ad3c
00000230: 4985 9e3d 84d2 62bd 0718 90bc 9b63 833d
00000240: b85a 813d a011 373c 6376 543d f67a 6e3d
00000250: 06bf 25bc fb3f a63d 3e19 993d 3ba1 0abd
00000260: 8094 7c3d f221 a1bd d653 ef3c 6162 883d
00000270: 664b 4e3d 4f08 34bc c5f8 863d 51a4 54bc
00000280: 6484 18bd 1024 443d cef9 753d 3137 9fbd
00000290: cb01 6a3d a088 bfbd 14ea 4b3c 6252 e33c
000002a0: 2d17 b43d 2a5f ae3d 8ffe 7d3d d782 af3d
000002b0: d4a5 e7bc 282a aa3d 8dd8 123d 8d21 0dbd
000002c0: 9ef9 833d 4226 093d b76a c33c f8aa 873d
000002d0: d2a9 3abd 7e7d 6d3d ff29 6d3d 112a 5d3d
000002e0: da81 8d3d 2c35 75bc 490d cf3d c06b a4bd
000002f0: 65a2 9a3b 85bc 593d f2d1 223d 2d43 94bd
00000300: bfb5 1bbc d74c 4a3d 9365 b03d d7e5 f73c
00000310: 8db8 06bd 44a2 893d 46cb 1d3d 56a8 583d
00000320: 0640 5b3d 8369 3d3d 19b5 35bc e6cb 9a3c
00000330: b01a 073d 447b 6a3d 352b 2fbd 79d2 babc
00000340: 4f78 383d b387 e23c 7e69 b43c 98f0 c7bd
00000350: aee4 9bbd 9b29 11bc 1aee f03d 9b69 d53c
00000360: da95 bdb9 6d5b 3e3c e402 7dbb 7026 b13d
00000370: 1ab6 923d 95ae cd3c 120b 9a3d c829 0cbd
00000380: ec5f 3bbb badb a53c 22d1 093c b892 e3bc
00000390: bc55 873c e99d a03d 3900 0c3d 570f 393c
000003a0: 519b 9fbd cc72 b43d ab87 51bc c33c 963d
000003b0: f0cb 603c 48ac b63c 12ba 0a3d d002 393c
000003c0: d055 de3d ee08 a6bb 1832 6c3d 985c c3bc
000003d0: cedf 013e 6498 a73d 273b 9ebd 4177 76bd
000003e0: 4d75 5b3d 518e 273d 34c9 e93c f0aa 193d
000003f0: 3e4d 14bd f6c7 bf3d 18f2 513d 077a 213d
0.066900134 0.011638335 -0.033390153 0.008961656 0.028798796 0.009860247 0.07471665 -0.032689452
0.108615406 0.027363127 0.04388058 0.009830056 0.034984883 0.035384186 0.058415383 0.062183365
-0.029592592 0.052585274 0.104977064 0.12285404 0.014908118 0.053153384 0.06687714 -0.014851972
0.0014474111 0.012309665 -0.0076775234 -0.029453663 0.006201718 0.033520043 -0.0027074513 0.053153787
-0.040934313 0.046450425 0.062628314 0.074779786 0.022150295 0.026519256 0.01806015 0.012859883
0.046945315 -0.035717502 0.05455039 -0.032513637 0.06095659 -0.039830077 0.029834682 0.0962248
0.039470933 0.12577799 0.018509734 0.057898715 0.091598704 0.0047297142 0.06701491 0.0685036
-0.01487775 0.10130913 -0.009094569 0.03317035 0.051054336 0.09237675 -0.02001176 0.051555745
0.038482495 0.00011193909 0.032112103 0.049694512 0.027393665 0.081346214 0.015273321 0.06423992
0.00064618676 -0.02074398 0.07729129 0.0038483848 -0.027991792 0.02724978 -0.0040600803 0.09088737
0.084441215 0.072819605 0.045742303 0.03593003 -0.052064106 0.043439087 0.013994562 0.025008997
0.07418542 0.02341723 0.07068069 0.03836373 -0.07221492 0.05579723 0.009951906 0.031511106
0.03606193 0.053827766 -0.023282321 0.051671963 0.074413605 -0.009663192 -0.009614981 0.029051581
0.108357064 0.07743009 0.0354274 0.056326587 -0.01713857 0.085471354 -0.0021010018 0.07666083
0.0739978 0.060263716 0.013524158 -0.018661609 -0.03897398 0.09232332 0.016311515 -0.053557612
0.062232044 -0.0072465804 0.09260828 0.054282274 -0.01587098 0.055501632 0.09623833 0.09539565
0.009266168 0.05990055 0.09035501 0.059605163 0.07752418 -0.008000236 0.062415447 0.02118118
0.095317386 0.028862799 0.037426963 0.021178998 0.07740266 -0.055376545 -0.017589582 0.064154826
0.06316131 0.011173636 0.051870715 0.058222733 -0.010116344 0.08117672 0.07475518 -0.033845168
0.061665058 -0.07867803 0.02921478 0.06659389 0.050364874 -0.010988309 0.06590418 -0.012978629
-0.037235633 0.047885954 0.060052685 -0.07774199 0.057130616 -0.09352231 0.012445945 0.027749244
0.08793483 0.08514245 0.062010344 0.085698776 -0.028277315 0.08308822 0.03585105 -0.034455825
0.06444095 0.03348375 0.023854597 0.066244066 -0.04557211 0.057981007 0.05790138 0.053995196
0.06909533 -0.01496629 0.10109956 -0.08028364 0.004719066 0.0531583 0.039751 -0.07239375
-0.009503781 0.049389686 0.08613124 0.030260963 -0.032890845 0.06720403 0.038523935 0.052894913
0.053527854 0.046243202 -0.01109054 0.018896054 0.032984436 0.05724646 -0.042765815 -0.02280544
0.04503661 0.027652597 0.022022959 -0.097626865 -0.076119766 -0.008860017 0.11764164 0.026051333
-0.00036160537 0.011618477 -0.003860646 0.086499095 0.07163639 0.025107661 0.07521643 -0.034219533
-0.002859111 0.020246375 0.008411678 -0.027779922 0.016520374 0.07842619 0.0341799 0.011295161
-0.07793296 0.08810958 -0.012788693 0.07335808 0.0137204975 0.022298947 0.033868857 0.011292174
0.10856211 -0.0050669825 0.05766496 -0.023847863 0.12683031 0.08183363 -0.07726126 -0.060172323
0.053578664 0.040907208 0.028538324 0.037516534 -0.036206476 0.093643114 0.05125627 0.039423015

fc3.weight f4 [2, 256]
00000000: 295a db3c fb84 3ebd 9db6 17bd 85e5 71be
00000010: 5d31 12bc 8520 14be 573a bebd fa57 e33d
00000020: 03af d2bb 1a41 81be 4de6 d1bd c3c8 cbbe
00000030: 88c6 b0bd 072a 373e aaaf 53be b873 4c3d
00000040: 3b49 e23d 4905 90bd 5f88 223a 5e87 84bd
00000050: 0166 9bbd 37b7 26be af88 813d 4572 37be
00000060: 900f 483e 3cd5 403e 5197 37be 8c00 7ebc
00000070: 38f1 80bd 0718 c53d f0e0 8cbe b880 363e
00000080: 1367 ff3d 0f34 abbd c5f8 80be 63ea f1bc
00000090: bd4f 97be 3c14 8c3e 3793 a1be 5a38 76be
000000a0: a62a 0abe 129a 863e 870b d5bd 8830 afbe
000000b0: 5cbe 28be 5b45 03be 715c a7be 168d 01bf
000000c0: e40c f5bd 9619 a73d 88a8 86be 1041 7dbe
000000d0: 9c09 e3bc 67df 1cbf 4d3a 9abe 1f6d ddbc
000000e0: d9d0 52be beba 6abd a265 f6bd 9ece 2c3e
000000f0: 5b37 26bf 5b8e 483d 26e3 d43c 9076 85bd
00000100: 02cd 97be 70c5 aabe 251b 503c b05c a4bd
00000110: 5aec 29be 6638 a5be 9558 00be 3ad0 3fbe
00000120: 874e a6bd 414f 203e cf72 e5be 5cef c5be
00000130: b70b 773d 27d0 873d 29fd 16be 9738 24bd
00000140: 66a9 4cbd f152 95be 8cec ed3c 2825 f7bd
00000150: 70e3 c8bd ea94 4bbd f95c 8abe b538 83bf
00000160: 5ae6 87be d71b 46be f1c1 53bd 1195 e7bb
00000170: 5208 c6be 2343 e3bd dec0 343e fe06 01bd
00000180: 2d25 3dbe 941e 533c b2a9 0cbe dc8e 87bd
00000190: b98c 7dbd 2137 53be 63c9 5dbc c84c bdbd
000001a0: 7c0e 7abe b962 82be 1150 64be 3ff7 b6be
000001b0: 4d90 92be 8010 aabe af5e 10bd 1552 b3bc
000001c0: 0578 5ebe 08f4 e1be 16da 41bf 175e e03d
000001d0: 06cd 343e 95fd 8dbe 1846 073e 657a e1be
000001e0: 06b2 2cbe 73c2 adbe 71c8 d6be 2234 073e
000001f0: 5c49 34be d745 fdbd 60dc 893e 59c4 2ebe
00000200: 3cb5 12bd c58f e7bd d38b 72be 01d9 303e
00000210: bfe1 683d 329d 46be 0523 51bf 0441 98be
00000220: 2d49 59be 1add 9ebd 346c c1be eb6b 34bd
00000230: c0f1 59be 7ee4 753b 752b cabc 1271 2d3e
00000240: 0ff8 18bf 3043 75bd 6501 49be 0f94 2dbe
00000250: e025 383e 76aa 05be 4d65 f3bd a734 0c3e
00000260: 76f4 7ebe 6c77 76be b143 d2bd 388f ccbc
00000270: c40b 163d e2ed cbbe bf52 21be b7de 8abd
00000280: 9712 cdbd e036 1a3e 9276 94bd 9c8f 0f3b
00000290: 30e3 a2be c0e6 a7be 12cf a5be 0f9e 6b3c
000002a0: b22b 60be 2298 93bd d35b b4be 862e a9bc
000002b0: f0af 9f3d d541 90bd 50ed b8bd da40 ae3c
000002c0: b007 053d 9d54 bbbe 6be8 d93b a636 94be
000002d0: da39 c1be 9af1 cdbe 04d9 413b 3b81 9f3d
000002e0: f9ce 98bd e77f 04be 657b 24be 0f5b debd
000002f0: 6987 a7bd a9c0 42be 9413 1abf b58c c9bd
00000300: 5457 863e 3344 353e d980 8c3d aada a03d
00000310: aa03 95bc 2157 c33d 015c 66be 2e1c 3c3e
00000320: efad 74be b995 94bd c0d6 723c bf78 11bf
00000330: 4c7d b8be 2f40 88bd 3d67 d2be 04b1 123e
00000340: 93cb 95be 8e41 64be c754 9fbe be7e 4a3e
00000350: 7150 323e 6caa 363e 731a 91be 063d da3d
00000360: 0962 e7be f290 1abf 128e 233e 805d 5cbe
00000370: 16c3 623e 7dfe 973c feee 86be 6247 e03d
00000380: 23ee 763e f7fb cdbe 265e 03bd 1079 39bd
00000390: bee9 3dbe 6f7c 93bd 8ebc dcbd 04b7 c2bd
000003a0: 55d6 b53e 2efb 013e 2581 343d 456c d43d
000003b0: 0650 a2be 8d33 f33d 150a 06be fd0e 303d
000003c0: eea8 353e 1a8c b7be 02a4 d0bd f96e 0ebe
000003d0: 2384 3dbd a679 6b3e f032 97be aa4a 13bf
000003e0: d1bd 9dbe 8903 6cbd 04cf d63c 7d0e e2bd
000003f0: 0d3b 8abe 6658 63be 3314 51be 266c 48be
0.02677639 -0.04651354 -0.037039388 -0.23622711 -0.008922902 -0.1446553 -0.09288471 0.111007646
-0.0064295544 -0.2524498 -0.102490045 -0.39801607 -0.08631617 0.17887126 -0.2067248 0.049915045
0.11049124 -0.07032258 0.00062001304 -0.06471132 -0.07587815 -0.16280828 0.063248985 -0.17914684
0.19537187 0.18831342 -0.17928816 -0.01550306 -0.06296009 0.096237235 -0.27515364 0.1782254
0.12470832 -0.08359539 -0.25189796 -0.02953071 -0.29553023 0.27359188 -0.3155763 -0.24044934
-0.13492832 0.2628942 -0.10402589 -0.34216714 -0.16478866 -0.12819426 -0.32687715 -0.50605905
-0.11965349 0.08159177 -0.26300454 -0.2473185 -0.027714543 -0.61278385 -0.30122605 -0.027029572
-0.20587482 -0.057306997 -0.12031104 0.16875693 -0.64928216 0.048963886 0.025987219 -0.065167546
-0.29648596 -0.33353758 0.012701784 -0.08025491 -0.16594067 -0.3226959 -0.12533791 -0.18731776
-0.08120447 0.15655233 -0.44814155 -0.3865918 0.060313907 0.06631499 -0.1474501 -0.04009303
-0.04996624 -0.29164842 0.029043458 -0.12067634 -0.09809005 -0.049702562 -0.27024058 -1.0251681
-0.26542932 -0.19346558 -0.05169863 -0.0070673306 -0.38678223 -0.1109679 0.17651698 -0.03150081
-0.18471213 0.012885708 -0.13736609 -0.06619045 -0.06190178 -0.20626499 -0.013536784 -0.092431605
-0.24419588 -0.25465944 -0.22296168 -0.3573551 -0.28625718 -0.33215714 -0.035246547 -0.021889726
-0.21725471 -0.44131494 -0.757234 0.10955446 0.17656335 -0.2773253 0.13210332 -0.44038692
-0.16864786 -0.33937415 -0.419498 0.13203481 -0.1760611 -0.123668365 0.26925945 -0.17067088
-0.03581737 -0.11306719 -0.23686151 0.1727028 0.056855913 -0.19395903 -0.8169406 -0.29737103
-0.2121932 -0.077570155 -0.37777865 -0.04404823 -0.21283627 0.0037520225 -0.024678925 0.16937664
-0.5975351 -0.059878528 -0.19629438 -0.16951011 0.17983198 -0.13053307 -0.11884556 0.1369196
-0.24897942 -0.24068993 -0.10266817 -0.024970636 0.036632314 -0.39829928 -0.15754221 -0.06780761
-0.10013311 0.15059996 -0.07249178 0.0021905666 -0.31813955 -0.32793236 -0.32384545 0.014380946
-0.21891668 -0.072067514 -0.35226306 -0.020652067 0.07797229 -0.070438065 -0.09029639 0.021271158
0.032478034 -0.36587992 0.006650021 -0.28947943 -0.3773945 -0.4022339 0.0029578814 0.07788321
-0.07461352 -0.12939416 -0.16062696 -0.10857212 -0.08180124 -0.19018807 -0.60186124 -0.09841291
0.262385 0.17701797 0.06860513 0.07854207 -0.018190224 0.09538103 -0.22496034 0.18370125
-0.23894475 -0.0725512 0.014821708 -0.5682487 -0.36033094 -0.06652867 -0.4109439 0.14325339
-0.29256877 -0.22290632 -0.31119367 0.19774911 0.17413498 0.17838448 -0.28340492 0.106561705
-0.45191982 -0.6037742 0.15972164 -0.21520042 0.22144732 0.018553967 -0.26354212 0.10951115
0.2411428 -0.40231296 -0.03207221 -0.04528147 -0.18546197 -0.07201468 -0.107781515 -0.09507564
0.35515085 0.12693474 0.044068474 0.10372213 -0.31701678 0.11875067 -0.13089783 0.042983044
0.17740223 -0.35849077 -0.10187532 -0.1390952 -0.046268594 0.22995624 -0.2953105 -0.57535803
-0.3080888 -0.05762056 0.02622176 -0.1103792 -0.26998177 -0.2220169 -0.20417862 -0.19572505

fc3.bias f4 [2]
00000000: ffe2 3bbd 153b 1e3d
-0.045870777 0.038630564
