checkpoint_critic.pth (torch_old, 581471 bytes, 9 tensors)

normalizer.weight f4 [24]
00000000: f448 ea3e 5961 c53e cdc5 3a3e 87c2 6b3e
00000010: ccb1 833f 9fac 253f 58a8 7a3d 018f c63b
00000020: af54 a13e b60c eb3d 5e85 333e 03c4 663e
00000030: c9c0 1c3f 777a 0f3f ce22 9a3d 070a 883e
00000040: 3166 003f 4618 6f3e 0fac d03d 3ce2 093f
00000050: 5381 35bf 57d2 1f3f f193 653e b55f b03e
0.45758784 0.38550833 0.18239518 0.23023425 1.0288634 0.64716524 0.0611957 0.006059528
0.3150992 0.11477034 0.17531344 0.2253571 0.61231667 0.5604624 0.0752617 0.2657015
0.5015593 0.23349103 0.101890676 0.5386083 -0.7090046 0.6243033 0.22419716 0.3444802

normalizer.bias f4 [24]
00000000: d5b8 0c3d a08e 0abe 9e76 943c 99bd 41be
00000010: a7f0 2d3d 5680 8ebd 3c20 75bc b9c6 87bb
00000020: a71c 383e e13e 12be 0c00 29bd 4476 58be
00000030: c253 373d 4d35 28be 481b ecbc d173 63bd
00000040: a49a 113d 07ef 80bc 4e22 1dbe f76b 50bd
00000050: c414 b7bc 24b3 b6bb 62bd babd 7ee3 41bd
0.034355957 -0.1353097 0.018122967 -0.18919982 0.042465832 -0.06958072 -0.014961299 -0.0041435626
0.1797968 -0.14281799 -0.04125981 -0.21138865 0.044757612 -0.16426583 -0.028821602 -0.055530373
0.035547867 -0.015738977 -0.15345117 -0.050884213 -0.022348769 -0.0055755544 -0.09118153 -0.047336094

normalizer.running_mean f4 [24]
00000000: af69 02c1 3c99 2abf a96a 6b40 8548 0ebe
00000010: 5a12 94bd 0ba7 8540 a96a 6b40 8548 0ebe
00000020: caf5 02c1 7cf0 2cbf 6481 5840 7d94 0abe
00000030: f552 77bd 89e1 8540 6481 5840 7d94 0abe
00000040: 5b6a 03c1 f3cf 2dbf 830d 5b40 1f8f 90bd
00000050: a9f9 50bd e93d 8640 830d 5b40 1f8f 90bd
-8.150802 -0.6664007 3.678385 -0.13894852 -0.07230063 4.176641 3.678385 -0.13894852
-8.185007 -0.6755445 3.3828974 -0.13533206 -0.06038185 4.183781 3.3828974 -0.13533206
-8.213466 -0.6789543 3.4226997 -0.07058548 -0.051019344 4.1950574 3.4226997 -0.07058548

normalizer.running_var f4 [24]
00000000: 85c4 7641 d51f 8a3f 2b80 9b43 e3ef 7541
00000010: 6503 d541 d9c4 fa3f 2b80 9b43 e3ef 7541
00000020: a66b 7541 81cc 8a3f 5e14 9b43 56af 7641
00000030: 509e d541 a990 f83f 5e14 9b43 56af 7641
00000040: c5d4 7241 8d1c 8b3f be03 9943 d07d 7441
00000050: 8568 d641 60a1 f53f be03 9943 d07d 7441
15.422978 1.0790964 311.0013 15.371066 26.626657 1.9591323 311.0013 15.371066
15.338781 1.084366 310.15912 15.417807 26.702301 1.9419147 310.15912 15.417807
15.176946 1.0868088 306.02924 15.280716 26.801035 1.9189873 306.02924 15.280716

fc1.weight f4 [512, 24]
00000000: bb51 0b3d 7c13 73bd 2555 613d 8256 693d
00000010: 325f 6dbd ce28 213d 0c43 143d 0d75 703c
00000020: fd72 8bbd b1fd e43d 7c79 5b39 2f6a 393d
00000030: 8300 ecbd c0d8 033e d740 04bd 256a e8bd
00000040: 2284 1fbd 49b4 01be 891b a43d 202e d4bc
00000050: 7cc7 0bbd a1c5 283d e49f 9b3c 97ef 5fbd
00000060: 1ab5 f9bc 6a0e afbc d7ab 803c a4d3 57bd
00000070: 8bf4 f2bc 5cda 2bbd a739 fa3c 80dd 08bd
00000080: 29ab cd3c fb7d 783c 5d13 eabc d132 ea3b
00000090: ff8a 67bd 878f 10bc c447 59bd ae0c 27bd
000000a0: 29de 9b3c 4f9e ac3c abbd 643d a575 613b
000000b0: db1b 4abe 1f4b a03d 47da 54bc 6e2f 033d
000000c0: 2e50 d7bc 278d 9b3b ba8d 01bd 1702 f9bc
000000d0: 4e05 bf3d 974f d63d 60fe e4bc 4074 3cbd
000000e0: e576 023d e67e 05bc 9e99 f739 b2b4 4d3c
000000f0: 1887 2b3c a0f1 f33d 6fb4 dcbc 2e9a 9cbd
00000100: 975e 85bd 1f9a 8dbd d5e4 20bd 8c93 dbbd
00000110: 5359 3abd 6366 62bd 1e39 99ba 4cad 12be
00000120: a7d9 f83c bef3 8e3d 6923 c1bc e3df 853d
00000130: 53e3 eb3d 8697 763c 9719 1d3b 251d 85bd
00000140: 3be9 1c3c afa8 093e 5a7b e8bc 28b9 d23d
00000150: e476 173e a219 213d ff3a 88bc dad2 61bc
00000160: 2bb8 60bd ec5e 67bd 97e0 da3d 7075 113d
00000170: 22ab 363c fd85 933d 7a42 a93d 0998 e9b9
00000180: 7281 0e3b 4416 7e3c 52a4 ba3d 8748 363d
00000190: 94c2 8a3d b500 4a3d 12b5 0d3e e871 28bd
000001a0: 68c2 193c 1b68 a73d 65f8 0d3e cd5b 033e
000001b0: 1781 21bc 52d2 6dbc 9aa3 e63d 4bd8 5d3b
000001c0: c159 7d3b 308b eabc d887 8abd 034a 28bd
000001d0: 195f a73c 148a ccbc 2e56 43be a719 83bd
000001e0: 8dee e5bd 7a7d 06be da4f d7bd 46b1 103e
000001f0: 6b1c d53d 841d 013d f0c5 b7bd 277c 123d
00000200: 7ef1 40bc 358b 81bc 634b c53b 1375 06bc
00000210: 09ee 003e d6f9 3dbd 35e5 41bd 08ec 86bc
00000220: 5418 753d b88e aebd 8b4a ab3d 19dc ccbd
00000230: 222d 94be 5f9c e8bc 45ca eb3d d74a 8dbd
00000240: 3de5 a23c 3ef8 24bd d0f5 c2bc 25ad a6bc
00000250: 9d48 bd3b ff81 db3c 6846 d6bb a87c bdbc
00000260: b0ee a2b9 fbb6 5cbc a1b2 15bd c884 f5bc
00000270: 1925 a43c 1920 483c fff1 07bc 35ea 1b3d
00000280: c447 e63c 14e1 cb3c 79a2 033d 0387 8bbb
00000290: 31c6 f43c d7da 1fbd 3c5e 93bc aeb5 58bc
000002a0: 20e8 3bbb beb2 cbbc 7a64 993d 3367 003d
000002b0: 24bf 2b3d ad91 5dbe 89fc d53d d1b4 87bc
000002c0: 4869 6fbc da3d 03bc 9426 c83d c0d2 a83c
000002d0: a96e 1bbc abdf 1ebd 3ed1 b23c 382d 88bc
000002e0: 5acb 993c 4f8c 37bd e069 7a3d 7a51 953c
000002f0: be8d 293e c634 663e 8ca6 743b 74ed 833c
00000300: 1825 983d 586b 6abd 8293 623b ab2a dd3c
00000310: f5ca 263d acde 61bd e79d bcbc e7bc 36bd
00000320: f4d6 c0bd 800e e0bd 8af9 75bc 04f5 433d
00000330: 8599 89bc c0da 223d 242c acbd 80d5 97bd
00000340: 21ee c839 0c8c c9bd 26aa 053e e005 b2bd
00000350: a9c3 e63d 3845 1a3e 904b f13d 32a7 80bd
00000360: c8bc 09bd f95f a3bd ce37 8ebd e97b cd3d
00000370: 0b85 dc3c 9a09 3ebc 6c72 18bd 2358 293d
00000380: 42b6 0cbe 2604 733d 5eda f93a 4871 703d
00000390: 7b50 323d 32c6 10bd 8062 acbb eff2 873c
000003a0: 0762 26be dc95 4abc 8ff4 0dbd 97d5 8e3d
000003b0: 4663 ddbd d1a7 7bbd 8e5a fdbd 68c3 d13c
000003c0: a291 823a 35fc d8bb e748 75be 24ae 84bd
000003d0: d091 e9bd bd7c 5fbc 44ea 5cbe 4735 5b3c
000003e0: 4c99 79bb 3e03 4bbb c012 adbd 3921 063d
000003f0: ea6d db3b 7176 4f3c 5dc4 2ebd ec39 ecbc
0.03401349 -0.059344754 0.05501284 0.056967266 -0.057952113 0.039345555 0.036196753 0.014676345
-0.06809042 0.111812 0.00020930724 0.04526728 -0.11523535 0.12875652 -0.0322884 -0.113483705
-0.03894437 -0.1266643 0.080130644 -0.0259009 -0.03412579 0.0412041 0.01899714 -0.05467185
-0.030481864 -0.021369178 0.01570694 -0.05269207 -0.029657623 -0.04195629 0.030545069 -0.033414364
0.02510603 0.015166755 -0.028573686 0.007147171 -0.05652904 -0.008823282 -0.053046957 -0.040783577
0.019026833 0.021071581 0.055844944 0.0034402397 -0.19737189 0.07826828 -0.0129914945 0.032027654
-0.02628335 0.0047470513 -0.0316293 -0.030396504 0.09327184 0.10464399 -0.027953327 -0.046009302
0.031851668 -0.008147931 0.00047225965 0.012555288 0.010469221 0.11911321 -0.026941506 -0.07646595
-0.06512182 -0.06914162 -0.03928073 -0.10721502 -0.045495342 -0.055273425 -0.0011689996 -0.1432392
0.030377222 0.06980084 -0.023576455 0.06536844 0.11517968 0.015050774 0.0023971552 -0.064996995
0.009577091 0.13443254 -0.028379131 0.10289222 0.14791447 0.039331086 -0.016629694 -0.013783181
-0.054863136 -0.05648701 0.10687368 0.035512388 0.0111492 0.072032906 0.082646325 -0.00044554498
0.0021744636 0.015508238 0.09113373 0.04450276 0.06775394 0.04931708 0.13838604 -0.041124254
0.009384729 0.081741534 0.13864286 0.12827988 -0.009857438 -0.014515476 0.11261673 0.0033850844
0.0038658234 -0.028630823 -0.067641914 -0.041086208 0.020431088 -0.024968185 -0.19075844 -0.06401377
-0.112271406 -0.13133803 -0.10513277 0.14130124 0.10405811 0.03152229 -0.089733005 0.035762932
-0.011776326 -0.01581345 0.0060209497 -0.008206624 0.12590803 -0.04638084 -0.04733773 -0.01646997
0.059837654 -0.08523315 0.08363827 -0.10002918 -0.28940684 -0.028394876 0.11513189 -0.0689904
0.0198847 -0.040275805 -0.023798853 -0.020346234 0.0057764784 0.026795385 -0.006539155 -0.02313073
-0.00031076884 -0.01347136 -0.036547307 -0.029970542 0.02003722 0.012214684 -0.008297442 0.038065154
0.028110392 0.024887599 0.032137368 -0.004258038 0.029879661 -0.03902706 -0.01798927 -0.01322691
-0.0028672293 -0.024865504 0.074898675 0.03134842 0.041930333 -0.21637602 0.10448558 -0.016565712
-0.014612503 -0.008010352 0.09772983 0.020608306 -0.009486833 -0.038787525 0.02182829 -0.016623124
0.018773723 -0.044811543 0.061136127 0.018227328 0.16557977 0.22481069 0.0037330715 0.016104437
0.0742895 -0.057231277 0.0034572785 0.026997885 0.0407209 -0.055143997 -0.023024512 -0.044613745
-0.09415999 -0.10940266 -0.015013108 0.047841087 -0.016796837 0.039759398 -0.08406857 -0.07413769
0.00038324393 -0.09841165 0.13053188 -0.08692527 0.11267788 0.15065467 0.117819905 -0.0628189
-0.0336273 -0.0797729 -0.06944238 0.100333996 0.026918909 -0.011598969 -0.037218496 0.04134382
-0.13741401 0.059330128 0.0019062271 0.058701783 0.043533783 -0.035345264 -0.0052607656 0.016595332
-0.16248332 -0.012364831 -0.034657057 0.06974333 -0.108099505 -0.06143934 -0.123707876 0.025605872
0.0009961615 -0.0066218623 -0.23953591 -0.06478527 -0.11404765 -0.01364058 -0.2157374 0.0133794015
-0.0038085757 -0.0030977274 -0.08450842 0.032746527 0.0066964524 0.012662516 -0.042667735 -0.028836213

fc1.bias f4 [512]
00000000: 0a25 9fbd d2f6 4d3d 6481 b0bc af3f 63bb
00000010: 72a9 8fbc 08da 0abd c714 4ebe bb34 34bd
00000020: bd02 e1bc a54f 12be d1cf 12bd 97d2 923d
00000030: b51c d83a 2670 b2bc e720 b83b 82eb c83c
00000040: 90d6 50be 6c71 34be 609e a3bb d7ca 16bc
00000050: 2432 92bd dac1 21bd 3a76 03bd 3f13 f1bd
00000060: 8d9e ccbb b6ab 0bbd 4307 71bd 5594 8fbe
00000070: 9f78 3bbe 8f22 2abd 7125 253c 26fd 35be
00000080: 8c48 33bc fd98 073d 23bf 8b3c 87f3 46bd
00000090: a2fa 64be ecfe a33b 8fa9 14be 586e d7bd
000000a0: 5a84 88be 5da9 74bd cb01 0bbe dd59 2fbe
000000b0: 325c d3bd dc3d 323b 98e7 3abd 5de5 f3bc
000000c0: 92c7 f3bd 064f 443c 4875 fdbd 39d3 91be
000000d0: c1c1 40be c604 c4bd caa1 3cbd 0591 3c3d
000000e0: a335 78ba 651e 32be 45c1 eebc 966b 2abd
000000f0: aae2 9f3c 9920 89bc 272e 1abe 13a0 31bd
00000100: 7379 c93c 8b57 eebd 16b2 3bbe 985b a6bc
00000110: 5d44 80bc ebd5 9fbd 0e9d 08be 1eaf 62be
00000120: 7f7a 90bd 6931 c03c fe04 d1bd 9f15 8c3d
00000130: 2fec b2bd b9ec fbbd 1e31 cdbc aee1 a4bd
00000140: a17f 8abe 83a3 373d 7e16 81be 55e0 eb3c
00000150: c553 093a d5af 083c 76cb 90be 7883 74be
00000160: 6815 e7bd 5907 1ebc 4c8a 14bd 2ef0 223c
00000170: 4431 bc3d a8a3 35bd dc4c aebd 238d e9bd
00000180: 706a babd dd10 7eba 92ac acbd ae7c 43be
00000190: 29fc 83be 22b6 93bd 81cc 39be 9e38 1bbd
000001a0: a518 353d 4de7 06be 5ac8 13be c0d5 d3bc
000001b0: 63c2 d0bd 415d a53d 1182 6cbe 4388 8a3b
000001c0: 4405 553c daea 19bd baef c23b 14d4 f0bd
000001d0: 7874 01be 2040 39bc 4702 0fbe d761 33be
000001e0: 3b04 b7bd 8c87 0a3c 45fd 43bc 61ae 2dbe
000001f0: 26fa 623d 5054 55be 983b 52be f45a 43be
00000200: 566f 43be 5b5e f83c 22a1 33bd 5299 96bd
00000210: b5ae d6bc ce73 aabd 7713 63ba 5f0f a7be
00000220: 004f 49bc 44ae d9bd 6469 85be 501b 57be
00000230: 8bad 4dbe f085 3fbc 3f09 363c 5701 b0bd
00000240: 899d 32be bcc4 38bd d432 bebd 6815 e8bd
00000250: e70b 56bd 3d2d 4ebe 613c 1bbe 27bf 5abe
00000260: 5c33 c9bd 3092 37be 2f10 80bd 36db 9abd
00000270: e82e 03be a9b2 97bd 4d3a 473c 3425 b4bc
00000280: 03d1 1ebd 2c53 3dbc 83a2 7dbe 1232 33bd
00000290: f969 49be 4310 dcbd 2a7a c6bd 1c5d 93be
000002a0: 076e 64bd 821c afbc a2fd 0abd ecb1 84bc
000002b0: e569 49bd 38cb 89bd 1839 22be 564e 6fbd
000002c0: 6f83 a7be 0c84 93bd 466f 81be fdb2 8cbe
000002d0: 3f27 88be e8d9 b73c c46f ab3c 16b6 17bd
000002e0: 3264 eebc 6fa1 1fbd bfd9 27be 1043 6bbc
000002f0: bcbc 0dbd 5720 8ebd 7bee afbd 844c 5fbd
00000300: bcf9 4ebe 262c 84bd 7ce1 25be eed7 eabb
00000310: 793c cb3c 7c1f a3be 9a87 5bbd 5aa7 45be
00000320: f87f 7fbb bb9e 493b f11d 01be ce58 60be
00000330: 3c70 e1bd d9d6 1bbc 0ef1 c5bd 02cb 17bd
00000340: 98d0 fabd c5af 9bbd a66f 21be 4ea7 5fbc
00000350: bbf2 933d 2dd4 99ba a2f0 55be 5890 15be
00000360: 1ec8 b7bd 29f0 02be ae24 ae3c 2fe0 45bd
00000370: a365 69be 4d27 7dbe fcf6 98bd c777 e8bd
00000380: 7c6d c4bc 5503 7bbe 4543 81be c463 9cbe
00000390: 0cd6 523c d995 1dbc 99e2 10be a941 e5bb
000003a0: 1971 62bd 187e 6c3c 02c9 e63b 9fd7 cdbd
000003b0: 46c8 c3bb 44ff 68bd dbf2 38bd fc4a c8bc
000003c0: e5b1 c53c 88c5 e3bd 823e 303d 9e1d eabd
000003d0: 32c1 32be 7027 b63c 51ba babd 2ded 92be
000003e0: 4562 91be 8962 eb3c 3426 4ebe 2122 8bbe
000003f0: 40d3 febc 0f4d 863b d6d8 50bd ba03 68be
-0.077707365 0.050284214 -0.021546073 -0.003467541 -0.017536853 -0.033899337 -0.20125113 -0.0439956
-0.027467126 -0.14288194 -0.03584272 0.07169073 0.0016488048 -0.021781992 0.0056191566 0.024526361
-0.20394349 -0.17621392 -0.004993245 -0.009203634 -0.0713847 -0.039491512 -0.03209517 -0.11771249
-0.0062444867 -0.034099303 -0.058844816 -0.28042856 -0.18307732 -0.041536864 0.0100797275 -0.1777235
-0.0109425895 0.033104885 0.017058915 -0.04857209 -0.22361234 0.0050047543 -0.14517806 -0.10519093
-0.26663476 -0.05973183 -0.13574903 -0.17124124 -0.10320319 0.0027197516 -0.04563102 -0.029772455
-0.119032994 0.011981731 -0.12375885 -0.28481463 -0.18823911 -0.09571223 -0.04605273 0.04603674
-0.0009468442 -0.17394407 -0.029144892 -0.04160651 0.019517262 -0.016739177 -0.15056668 -0.04336555
0.024594044 -0.11637791 -0.18329653 -0.020307347 -0.015657598 -0.078044735 -0.13341162 -0.22137114
-0.07054614 0.02346106 -0.1020603 0.068400614 -0.08736455 -0.12301011 -0.025047835 -0.080508575
-0.27050498 0.04483367 -0.25212473 0.028793493 0.0005238618 0.008342703 -0.28280228 -0.23878276
-0.1128338 -0.0096453065 -0.036264703 0.009944959 0.09189084 -0.044345528 -0.085107535 -0.11403873
-0.091023326 -0.0009691844 -0.08431353 -0.1909053 -0.2577832 -0.072124735 -0.18144418 -0.03789579
0.044212956 -0.13174172 -0.14431897 -0.02585876 -0.10193326 0.080744274 -0.23096491 0.0042276694
0.013001744 -0.037577488 0.005948988 -0.11759201 -0.12642086 -0.0113067925 -0.13965712 -0.17517792
-0.08936354 0.008455168 -0.01196224 -0.16961052 0.05541434 -0.20832944 -0.20530546 -0.19077665
-0.1908544 0.03031843 -0.04385484 -0.07353462 -0.026206354 -0.08322869 -0.0008662263 -0.32628915
-0.0122869015 -0.10628942 -0.2605697 -0.21006513 -0.20085733 -0.011689648 0.011110603 -0.085940056
-0.17442907 -0.045109496 -0.092870384 -0.11332208 -0.052257445 -0.20134445 -0.15159751 -0.21361981
-0.09824249 -0.1792686 -0.06253087 -0.075613424 -0.12810862 -0.074071236 0.012159896 -0.021990396
-0.038773548 -0.011555474 -0.24769025 -0.043748923 -0.19669332 -0.10745289 -0.0969127 -0.28781974
-0.055768993 -0.021375898 -0.03393329 -0.016198121 -0.049173255 -0.06728214 -0.15842092 -0.058424316
-0.32717463 -0.0720292 -0.25280207 -0.27480307 -0.26592442 0.022442773 0.020927317 -0.037038885
-0.029100511 -0.038972314 -0.16391657 -0.014359251 -0.03460382 -0.06939762 -0.085904084 -0.05451633
-0.20212454 -0.06453733 -0.16199297 -0.007166854 0.024809109 -0.31859958 -0.053596117 -0.19302121
-0.0038986187 0.0030764777 -0.12609078 -0.21908876 -0.11007735 -0.009511673 -0.09665118 -0.037058838
-0.12246817 -0.07601885 -0.15765247 -0.013650728 0.072240315 -0.0011736207 -0.20892575 -0.14605844
-0.08973716 -0.12786926 0.021257725 -0.0483095 -0.22792678 -0.24722023 -0.074689835 -0.11350971
-0.023977987 -0.2451299 -0.25246635 -0.30544865 0.012868416 -0.009618246 -0.1414894 -0.0069963527
-0.05528364 0.01443436 0.007043005 -0.10050892 -0.005974802 -0.056884065 -0.04515348 -0.024449818
0.024132678 -0.111216605 0.043028362 -0.1143143 -0.1745651 0.022235602 -0.09117568 -0.28696576
-0.28395286 0.028733509 -0.20131761 -0.27174476 -0.031106591 0.0040985416 -0.05098804 -0.22657672

fc2.weight f4 [256, 514]
00000000: 87a5 54bd 7649 8cbd c691 bd3c 9f15 013b
00000010: dafb f83c 25ee 6bbd 48a0 10bd 6b54 13bd
00000020: e9d4 de3b 63fc abbc 8d73 443d 1bd2 0e3d
00000030: caea 24bd 521c fcbc 9a36 103c 3df1 70bd
00000040: abf4 813c a6df 3dbd aac8 f6bb 0c8b 56bb
00000050: 65c4 313d 86f9 fcbc 5bc2 7cbd 13cd d03b
00000060: 330d 73bd 53aa ebbc c022 0ebd ecda 463c
00000070: 4717 d33c be2d a2bc 0a2f 48bd 68c8 ad3c
00000080: 21ff 04bd 1f6a 8b3b 809c 05bd 1f41 63bd
00000090: 96e3 313d 7cfe 973b 3638 593d 3694 3bbd
000000a0: 1fd5 23bd 210c 1bbc 26c8 0fbd fe2d 303d
000000b0: 3f66 93bd 22dd 083c a8dd 143d 2196 e53b
000000c0: d665 20bc ae43 4cbd caf9 7fbd 649e 3f3d
000000d0: 706d 5d3d 3f97 1e3c c59b 75bd 7a2e 89bd
000000e0: c9bb 06bd e811 9dbc 8d94 183d 7342 953c
000000f0: 0e8f b4bc cac4 033d 1360 443d ade3 f6bc
00000100: ee95 41bd 4ace 2f3d e04c 313d f10e 0bbd
00000110: 4f0c 85bd c2ad 1e3d e57d 7d3c 367c 7c3d
00000120: 5e6a 64bd f147 3fbb ee0c 9ebb ed03 03bd
00000130: b2f1 c5bb 0391 89bc d500 87bd 1c78 92bd
00000140: daac 3ebd dd1f 88bd c089 933b 3a0b 02bd
00000150: 44fa 4a3d b299 633d 1250 0b3d 2d33 1cbd
00000160: 87d6 11b9 da0b 163d 5d7c aaba 7d1f 80bd
00000170: 581c 273d 3fad 8fbd 526c 073d 705d 223c
00000180: d757 fe3c 883f 41bd 13aa 81bd d3ae 4abc
00000190: 57be 1f3c df3a 823a 9982 56bd 0200 d73c
000001a0: b96f d3bb 8e3e 48bb fcd7 bcbc e069 d03a
000001b0: 7d38 c03b fe13 c9bc 645e 91bc 41e1 a13c
000001c0: dc65 5fbd 57e2 5cbd 423d 023c 0e22 9abd
000001d0: eb4c 373d c7fd 86bd f249 4fbd fa64 32bd
000001e0: 425b a2bb e928 4cbd 4d38 433d 6c01 49bd
000001f0: 94dd 1abc a080 603d f526 80bd d782 51bd
00000200: c139 41bd d03a a83c 9bb8 cbbc 6a67 963c
00000210: 3d4d 423d 3988 8cbd 3bf0 c3bc befc 86bb
00000220: ed3b 2bbd e94b 013d 2492 78bd e326 80bd
00000230: 3e1c 313d d60c 57bd 4312 053c d7b1 04bd
00000240: 203e b83c 2c23 13bd b2b6 3f3c 460b 01bd
00000250: 2bed 16bd 8151 453d 57a2 4cba 0847 4d3c
00000260: 988e f5bc 25e3 553d 751e 35bc d5c1 cebc
00000270: 7eb0 343d 4618 c8bc 6ae2 c63c c449 3c3d
00000280: e6e6 d8bb a596 3fbd 6681 9ebc ab50 aabc
00000290: 8559 083d 0ea4 b13c 9f6e 9fbc 7943 d5bc
000002a0: 6e87 85bd ee18 4d3b 7be6 0ebc 9498 59bd
000002b0: b042 7cbd 77d8 463d 9749 74bd 6e1b 92bc
000002c0: 10ed ce3b 1a36 223b 560a a1bb de9e 763d
000002d0: 849c 52bd a671 8b3b 409b 003c 2c74 a63b
000002e0: 8770 fc3c 9bc9 643b ea4b 6ebc e36f 013c
000002f0: b811 b43c df85 e5bc b936 22bd 048c 1b3d
00000300: 47fc 0bbc ae1f 033b 586b d3bc 159b 903c
00000310: cabe 8cbc 4ed3 7f3c fa96 91bc f2ba 27bd
00000320: 990b 053d 1d07 d93c 092f 50bd c21e 183d
00000330: 6fa1 66bd 897a c83c 6742 6bbd 99bd c2bc
00000340: ea7b 6bbd e84f 483d 3256 743d 508a 1b3d
00000350: d790 00bd b23b 00bd e726 173d 1586 4ebd
00000360: 3e86 4abd 0528 92bc 46f5 3cbd bf0b 87bd
00000370: 7a2c 963c af21 18bd c99b e4bb 97cf cfbb
00000380: f6d1 22bd 1a9f 063c b14c e9bc d1aa 0c3c
00000390: b3fd 603c 02aa f2bc db0b e13b 80bc 253d
000003a0: 7146 94bd 1c9c 16bb 0005 f13c 69f3 37bd
000003b0: 0720 bc3c b181 0bba 7bca 52bd 640c 99bc
000003c0: 2849 04bd 78f3 e43b f626 7fbc eefe 653d
000003d0: 21f9 f13c 0a38 7f3c a36d 5f3c e49a 2f3d
000003e0: e25e 343d f507 1a3d ea72 cebc 2efe 263d
000003f0: 457b ff3c 5ccf 503d 6956 82bd 7d7a c23c
-0.05191567 -0.06849949 0.0231408 0.0019696725 0.03039353 -0.05760016 -0.035309106 -0.03596918
0.006800283 -0.02099437 0.04796176 0.03486834 -0.040262975 -0.030775223 0.0088020805 -0.058823813
0.015863737 -0.046355866 -0.0075312452 -0.0032736687 0.043400187 -0.0308807 -0.06170879 0.006372103
-0.05933876 -0.02876774 -0.03470111 0.012137156 0.025767935 -0.019797202 -0.048872985 0.021213725
-0.032469872 0.004254594 -0.032619953 -0.055482026 0.043429933 0.004638491 0.053032123 -0.04579564
-0.03999817 -0.009463341 -0.035102986 0.04301261 -0.07197236 0.008353503 0.0363442 0.007006422
-0.009789905 -0.049869232 -0.062494077 0.046781912 0.054059446 0.009679615 -0.059963007 -0.06698318
-0.03289393 -0.019173577 0.037251044 0.018220162 -0.02204087 0.032170095 0.047943186 -0.030137861
-0.047262125 0.042921342 0.043286204 -0.033949796 -0.06496488 0.038739927 0.01547191 0.061641894
-0.055765502 -0.0029187168 -0.0048233187 -0.031986166 -0.006040775 -0.01679278 -0.065919556 -0.07151815
-0.046551563 -0.066467024 0.004502505 -0.031748988 0.04955508 0.055566497 0.034011908 -0.038134743
-0.00013908195 0.036632396 -0.0013007034 -0.06256006 0.040798515 -0.07015466 0.033062287 0.009909973
0.031047745 -0.04717973 -0.06331267 -0.012370783 0.00974997 0.0009935758 -0.05237064 0.02624512
-0.0064525274 -0.0030554864 -0.023052208 0.0015900694 0.005866109 -0.024545666 -0.017745204 0.01976073
-0.0545405 -0.053926792 0.007949175 -0.07526027 0.04475109 -0.06591373 -0.05060763 -0.04355333
-0.0049547264 -0.049843702 0.047661114 -0.04907362 -0.009452242 0.054810166 -0.062574305 -0.05115017
-0.04717422 0.020535856 -0.0248683 0.018359859 0.04743694 -0.0686192 -0.023918262 -0.0041194847
-0.041805197 0.031566534 -0.060686246 -0.06257417 0.043239824 -0.052502476 0.00812203 -0.032396164
0.022490561 -0.035922214 0.011701273 -0.03150489 -0.036847275 0.04817343 -0.0007806173 0.012529142
-0.02997522 0.052218575 -0.011054625 -0.02523891 0.04411363 -0.024425637 0.024277885 0.045968786
-0.006619322 -0.046774525 -0.019348811 -0.020790419 0.033288497 0.021684673 -0.019461928 -0.02603315
-0.06519972 0.0031295377 -0.008721943 -0.053124025 -0.061587036 0.04854628 -0.059640493 -0.017835345
0.006314881 0.0024751485 -0.004914562 0.0602101 -0.051418796 0.0042554913 0.0078495145 0.0050797667
0.030815376 0.0034910205 -0.0145444665 0.007900211 0.021981105 -0.028017936 -0.03960297 0.037975326
-0.008544034 0.0020007896 -0.025808021 0.017652074 -0.017180819 0.015614344 -0.017772187 -0.04094977
0.032481764 0.02649265 -0.050826106 0.037138708 -0.0563063 0.024472492 -0.057436373 -0.023772048
-0.05749122 0.04890433 0.059652515 0.037973702 -0.03138813 -0.03130693 0.036902335 -0.05042084
-0.04944443 -0.017841348 -0.04613235 -0.06594037 0.018331755 -0.0371415 -0.006976579 -0.0063418853
-0.039751016 0.008216644 -0.028478952 0.008585648 0.013732362 -0.029622082 0.0068678684 0.04046297
-0.07239998 -0.0022981232 0.02942133 -0.04490987 0.02296449 -0.0005321755 -0.05146263 -0.018682666
-0.03229633 0.0069870315 -0.015573254 0.056151323 0.02953774 0.015577326 0.013636979 0.042872325
0.0440358 0.037605245 -0.02520128 0.04076975 0.03118671 0.050979003 -0.06364138 0.023740048

fc2.bias f4 [256]
00000000: 8a40 41bb ef73 b4bd 425d 59bd 5f34 63bd
00000010: 59d8 633d 53b7 d6bc 5107 a4bb 0a26 723d
00000020: 52cd 2cbd 60bd 003d 7f52 8a3d 7309 9f3c
00000030: 0c4d 2cbc d901 03bd 45ca 7cbd f7fc 7c3d
00000040: 86c8 793d b8d0 d93c 1c13 60bd 276b 14bd
00000050: 30be 433c f30b a63a 7e25 94bc 396d 32bd
00000060: 822b 2c3d a494 55bd e48f 9a3d b961 953d
00000070: 4a5c 063d f306 49bd f995 86ba 3049 153d
00000080: d008 2e3d 5cea 5f3d d298 7a3b b5bd 813d
00000090: 686c b4bd a1e5 c2bc c9ba 873c 5074 30bd
000000a0: 862e 9d3d 83d8 41bd 93e6 b8bd 197f c23d
000000b0: 2a6e 773d 269c ddbb c3dd 833d 4c80 a2bd
000000c0: 0f69 643c e976 4abd 764d 203d 96e9 72bd
000000d0: 1eb5 ddbc aa5b 07bc f3b2 84bc 38a6 82bc
000000e0: 6683 d6bc 3477 55bd d813 2c3c 512e 46bd
000000f0: e0af a13d 4fea 5ebd 13e2 293d d480 00bd
00000100: db59 593d 0037 673d f85d 053d 4def 18bc
00000110: 4670 5dbd 66be 30bd fda7 923c f444 0f3c
00000120: dbb9 0dbd a636 923c bc47 87bc 8cc6 7f3d
00000130: f657 81bd 9890 62bd 38c8 253d 753a 26bd
00000140: a40b 533c 0358 74bd f411 083d 77c7 883d
00000150: b125 17bd 64c3 983d 3a53 ee3b 887c a83d
00000160: 26a1 a4bc dc9d e5bc 435f 1fbc 1aaa 31bc
00000170: 71c4 15bd 8098 923d 94c1 8c3c 5db1 1e3b
00000180: e105 b7bc f900 7bbc 1027 5abc 8816 af3d
00000190: a8f6 43bd 60da 34bd f7bd 41bb 87b7 633d
000001a0: af81 b6bd bc33 303d 15cf a6bc 5df1 473c
000001b0: 9969 983d f4b1 793c 8b89 34bd e20e 973d
000001c0: 56c6 583d fef9 9c3d d280 8ebd 1c5b 3c3d
000001d0: 16db 2fbd 6b7b 1d3d fa0c 883d cd1a b7bd
000001e0: b475 43bd e36c 763c 9798 363d 8046 7d3d
000001f0: ed2c 16bd a761 acbc e4d7 313d 21a2 b7bd
00000200: 0dc0 dfbc 8342 a23c 8392 073d 1948 0d3d
00000210: ebec 903d 5144 043c 703e 243d c4c4 6c3d
00000220: 4e2a 6d3d a459 0cbd 3cb5 bebc ae4a 063d
00000230: c410 4d3d 0d48 1cbc 4e0c 58bc a102 dd3b
00000240: 901b 09bb fbba a93c 2531 57bd 2802 80bd
00000250: 6212 a2bc 121c 0abd 9714 18bd 024f 363a
00000260: 59ff a53c ce9f 3fbd b8f3 6b3d 6ae0 7d3d
00000270: 46a4 33bd 261f 2ebd e7a2 13bd fb9b f5b9
00000280: 2748 bf3c 80d1 9f3d a57b 7dbd ee04 323d
00000290: f808 8e3a b3b7 cfbc 6019 8e3d ca7d 33bd
000002a0: 904f 93bd 0dca 9bbc 2369 153c a023 733d
000002b0: df3d 2e3d 1595 01bd 5800 c03c 85a7 9c3d
000002c0: 613d 813c 7d96 243c 674f b3bc 65e7 3f3d
000002d0: c825 643d d1cc cd3b ecbd 1bbd 79ea 85bd
000002e0: 340d 363d 9fb8 1d3d e999 433d bfc8 673d
000002f0: 9cec a73d d849 a9bb c15f d63c 8c2b bd3c
00000300: 15ef 9a3d 5b8e 9f3b c0a2 d5bc 0839 933d
00000310: 4613 69bd f2b9 96bc 740c 853d 60d2 0a3c
00000320: 8f26 5dbd d83f f93b 9fb6 9b3c 7c44 bd3d
00000330: c274 a7bc 86a7 c1bc 7b79 6d3d 4595 a0bd
00000340: 9357 93bd b320 ab3c 6def 3b3c ec01 923d
00000350: a119 60bb a0fa 87bd 57b2 2cbd 5e87 853d
00000360: 0ed9 b03d ed3d df3c 4697 37bd e2d9 92bb
00000370: 92a7 91bd 05ea 5ebd 64ff 923d df42 a43d
00000380: 14c2 c0bd c496 d7bc 8b61 193d 2e85 903c
00000390: 811a a43d 83ed 09bd 1d5e 88bc 1f59 993d
000003a0: 3aac 75bd 5ff0 31bd 11f3 d23b 6fbf 63bd
000003b0: 6c12 233d 032c 75bd 54b6 a0bd 033b 333d
000003c0: f317 af3c a2e9 5dbd 962a f8bc 9906 503d
000003d0: df50 713d 27b6 29bd 19e1 1f3d 0289 77bc
000003e0: a6a4 af3d 3622 d4bc 8ae4 313d 028a f03c
000003f0: aba5 22bd 0203 2f3d 6fe8 35bc bd86 b43d
-0.0029487931 -0.08811175 -0.053067453 -0.055469867 0.055626247 -0.026210463 -0.005005755 0.059118308
-0.042187996 0.031430602 0.06754016 0.019413685 -0.010516416 -0.031984184 -0.061716337 0.061764684
0.06098225 0.026588783 -0.054705724 -0.036235 0.0119472 0.0012668356 -0.018084284 -0.043561194
0.04203368 -0.052143708 0.07546976 0.0729403 0.032802857 -0.049078893 -0.0010268084 0.03644675
0.042488873 0.054666862 0.003823806 0.06335012 -0.08809739 -0.023791136 0.016568558 -0.043079674
0.07674889 -0.047325622 -0.090283535 0.09496898 0.060407795 -0.006762999 0.06438782 -0.07934627
0.013941064 -0.049429808 0.039136373 -0.059304796 -0.027063902 -0.0082616005 -0.01619861 -0.0159484
-0.026185703 -0.052115634 0.010502778 -0.048384015 0.078948736 -0.054422673 0.041475367 -0.03137286
0.05306421 0.056448936 0.03256032 -0.0093343975 -0.05406215 -0.043150328 0.017902369 0.008744467
-0.034601074 0.017848324 -0.016513698 0.06244521 -0.06315605 -0.055313677 0.040474147 -0.040583093
0.012881193 -0.059654247 0.033220246 0.0667867 -0.03690118 0.07459143 0.007273105 0.082268775
-0.020096373 -0.028029375 -0.009727302 -0.010843778 -0.036564294 0.07157993 0.017182149 0.0024214603
-0.02234167 -0.015320056 -0.013314977 0.08549219 -0.04784265 -0.04415357 -0.002956269 0.055594947
-0.08911454 0.043018088 -0.020362416 0.012203542 0.07442016 0.015240181 -0.044076484 0.073758855
0.052923523 0.0766487 -0.06958164 0.045985326 -0.042933546 0.03844778 0.066431 -0.08940659
-0.047719672 0.015040609 0.044579115 0.061834812 -0.03666394 -0.021042658 0.04341878 -0.089664705
-0.027313257 0.019807106 0.03309871 0.034492586 0.070764385 0.0080729285 0.040098608 0.057804838
0.057901673 -0.034265175 -0.023279779 0.032786064 0.050064817 -0.009538663 -0.013186527 0.006744698
-0.002092097 0.020719042 -0.052537102 -0.06250411 -0.019784156 -0.033718176 -0.03712901 0.0006954522
0.02026336 -0.04678326 0.057605475 0.061981596 -0.043857835 -0.042510174 -0.036044028 -0.00046846256
0.023349835 0.07803631 -0.061885495 0.043461733 0.0010836413 -0.02535615 0.06938434 -0.043821134
-0.0719291 -0.019017244 0.009119305 0.059360147 0.042539474 -0.031636316 0.023437664 0.07649139
0.015776338 0.010045645 -0.021888448 0.046851534 0.055700094 0.0062805195 -0.03802292 -0.06538863
0.044446185 0.038506147 0.047754202 0.05658793 0.081994265 -0.0051662736 0.026168706 0.023092054
0.075651325 0.004869265 -0.026078582 0.07188612 -0.056903146 -0.018399213 0.06496516 0.008473009
-0.05399185 0.0076064877 0.019007979 0.09241578 -0.020441417 -0.023639452 0.05797718 -0.07840971
-0.07194438 0.020889616 0.011470658 0.07129273 -0.0034194964 -0.066396 -0.042162266 0.0651996
0.0863515 0.027251208 -0.044822 -0.00448154 -0.071120396 -0.054422397 0.07177618 0.08020567
-0.094120175 -0.026317008 0.03744654 0.01764163 0.08012868 -0.033673774 -0.01664644 0.074877016
-0.0599787 -0.043442126 0.006437667 -0.055602487 0.03981249 -0.059856426 -0.07847276 0.04375745
0.021373725 -0.054177888 -0.030293744 0.050787542 0.058915015 -0.04143348 0.03903303 -0.015108349
0.08576326 -0.02589522 0.043430842 0.029362682 -0.039708775 0.042727478 -0.01110278 0.08814762

fc3.weight f4 [1, 256]
00000000: d4f7 863b ca91 18be 7c57 893c 6e6a bdbd
00000010: f2ce 4b3c 867c 5b3a efd7 20bc f16a ee3b
00000020: 03ba a2bb f2a0 0b3d c5bd d13b b1cd 25bc
00000030: 556e 45bd b21d 833c d7de b03c 804c dc3b
00000040: f099 033c 03e9 2f3c e55a 02bd 543c 4cbb
00000050: f4be f3bc 0d49 26bd 849f 94bc 200e 89be
00000060: 68cd bd3b 2ae8 f93a 24c3 ed3b 78ef ef3b
00000070: 8a47 07bc 6dc0 f2bd fc3f 623c 314c c1bb
00000080: 48cf e4bb 5d9b e73b 3ff9 b53c 3c98 e03b
00000090: f995 98bd 2126 ebbd 999a c2bc 6dc5 dd3c
000000a0: b136 ed3b 28ff 4f3a 6988 94bc 7277 eb3b
000000b0: 6d61 123c 8870 0fbd 6af7 ef3b 06fb 15be
000000c0: 14ff 86bd d6ab 083d cd1c 023c ea26 cfbc
000000d0: f8b9 0dbe 9d8d 0dbd 0898 713c e990 00be
000000e0: 51d4 b4bb 4612 bd3d 45ff cf3c 74c0 383c
000000f0: 1514 c83b c9e4 ef3a b742 8fbd 119c 283e
00000100: 1814 a8bb 4f0d d53b fafe c93b 0420 55bd
00000110: 55da e7bc 3661 a0bc 60dc e33b bb76 8fbd
00000120: 673b 033b eb2d c9bc 6ddd 56bb 38da df3b
00000130: 36af 8eba 1181 a1bd eda1 d3bb e40b 01bc
00000140: 2d66 05bd 3bb3 d3bb d1e8 19bd 12c8 db3b
00000150: d9a1 34bd 188b f53b 64f9 eabc 40d3 d23b
00000160: bb1c edbd d702 1fbe d8c5 2abb 718a 4c3d
00000170: 167e 0d3e dd95 e43b 8af9 893c 0167 e2bb
00000180: dd0a 9a3b f561 76be b19e 1c3d ef6e 073c
00000190: d19e b8bb 4886 22bd 6b89 0f3e 0032 e03b
000001a0: 9597 34bd f37b c03b 2fc2 063e 037f 163d
000001b0: 81a7 183c f6c4 f6bc f4d7 debd 16d7 e53b
000001c0: 3e57 ea3b 9b02 143c cc7b 783d 4b60 233c
000001d0: 80d5 b63d e1e9 be3b a434 d13b 739b b0bd
000001e0: 8209 26bb 06d2 33bd b1dc df3b 38f4 cb3b
000001f0: c0c3 fdbd 1693 f0bd 9ca3 023c 103c 96bd
00000200: 6b7e 99bb eab2 693c a246 b0bb e8a9 2d3c
00000210: 120a d83b 9afa e0bb 81ad 03be cc1d 203c
00000220: ccfa e8bb 1312 09be ef0e 01be cc46 34bc
00000230: 086e 543c fa10 933d 2f7c 4bbc 5ca4 6bbc
00000240: a5a7 5ebd 9180 3c3e 3683 1abd b49d db3a
00000250: 0f22 183e ff63 193c 3b1c 17be dcac 16be
00000260: 7a68 b0bd 3c30 4dbd c07b dd3b 5e48 b9bb
00000270: e2eb 0b3e 3a9f 473b 20a6 46bd cc08 27bd
00000280: d26c aabc 8a13 f43b f1c8 39bd 383c 023c
00000290: f0cf 3ebc 4993 06be 1892 053c bf5f 5b3d
000002a0: 544d b53a 472f 08bc 3904 0d3e 43c3 ab3b
000002b0: 007e be3b 8d2a 223d efff 0c3c c18b 253c
000002c0: 9179 d7bb 24a0 17bc 3cb9 03bd bde6 373c
000002d0: ad8f 0b3c 27c3 20be 35b8 263d 0513 47be
000002e0: fd65 d83b c52f 173c 2cce 303c 095d 053c
000002f0: ef50 1d3c 3bda bcbb 009d e6bc 0ec2 0bbd
00000300: 3c0f f73b 0bb1 fe3c 8de6 263c 5d5a c73b
00000310: 402f 823a ebe3 c93d f89f c93b 5494 03bc
00000320: 56ad 5cbd c308 14be 7e7d 913d 748a fb3b
00000330: 752d 57bd be42 633c d741 e33b b2c9 393d
00000340: 07f0 893d 1f90 82bc 4105 c73b e6ff 0b3c
00000350: ba1a 6b3d 7816 debc 4cc1 ba3a c413 0d3c
00000360: f32a ed3b ee40 c3bb deff d1bd bb2a 503e
00000370: d348 14bc 2ec3 6dbe a592 e43b ed77 d73b
00000380: 209b 85be dea7 a739 af81 c43b e4ca 12bd
00000390: 1291 e93b 54d0 ed3c bd8d 29bd a8e8 013c
000003a0: d6bd 6f3d 8827 143c 6290 ab3d 01b9 8abb
000003b0: 6a53 a43c 7c31 0cbb 10df 1b3e 3dc2 dc3b
000003c0: 3a8e 2c3d 1779 323c b57a 52be 7acb 003c
000003d0: f91b c53b 1e58 d93a d365 183c 5c27 563d
000003e0: 6cff cf3b 36df 71bd 93d5 e43b 8934 c7bc
000003f0: 4e15 d03d 18b2 e53b af23 293d 7ac4 ff3b
0.004118899 -0.14899364 0.016765349 -0.092488155 0.012439476 0.00083727424 -0.009817108 0.007275932
-0.004966022 0.034089036 0.006400796 -0.010119841 -0.048200924 0.01600537 0.021590633 0.0067229867
0.008032307 0.010736707 -0.031824965 -0.0031163888 -0.02975414 -0.04059701 -0.01814247 -0.2676859
0.0057923086 0.0019066383 0.0072559286 0.007322248 -0.008256802 -0.118531086 0.0138092 -0.0058989753
-0.0069827177 0.0070680813 0.022213576 0.0068540853 -0.0745048 -0.11481882 -0.023755359 0.027071679
0.0072391857 0.00079344446 -0.018131452 0.00718587 0.008934361 -0.035019428 0.007323195 -0.14646539
-0.06591621 0.033367 0.007941437 -0.02528711 -0.13840473 -0.03455888 0.01474572 -0.12555279
-0.005518474 0.09232001 0.025390277 0.011276353 0.0061059096 0.0018302436 -0.06995147 0.16465785
-0.0051293485 0.0065018306 0.006164429 -0.052032486 -0.028302351 -0.019577604 0.006953761 -0.07005068
0.002002442 -0.024558028 -0.0032785789 0.0068314336 -0.0010885957 -0.078859456 -0.006458512 -0.00787637
-0.032568146 -0.006460575 -0.037575547 0.0067072 -0.044099662 0.007493388 -0.028683372 0.0064338744
-0.115777455 -0.15528427 -0.0026057865 0.049936716 0.13817629 0.006975873 0.016842622 -0.0069092517
0.004701002 -0.24060805 0.038237277 0.008266195 -0.0056341668 -0.03967884 0.14017265 0.006841898
-0.044089872 0.005874151 0.13160013 0.03674222 0.00931728 -0.030123215 -0.108810335 0.0070141656
0.0071515134 0.009033824 0.060664937 0.0099716885 0.08927441 0.0058262204 0.006384449 -0.086233996
-0.0025335257 -0.043901466 0.0068317284 0.0062241815 -0.12390852 -0.117468044 0.007973578 -0.07335675
-0.0046842596 0.014263848 -0.005379514 0.010599591 0.0065929973 -0.0068658115 -0.12859155 0.009772729
-0.0071099754 -0.13385801 -0.12603353 -0.011003207 0.012965687 0.071809724 -0.012419744 -0.014382448
-0.054359097 0.18408419 -0.03772279 0.0016755373 0.14856742 0.00936222 -0.14756863 -0.14714378
-0.08613677 -0.050094828 0.006759137 -0.005654379 0.13664201 0.0030459897 -0.048498273 -0.040779874
-0.020803843 0.0074486183 -0.04535765 0.007948928 -0.011646256 -0.13142122 0.008152507 0.053558107
0.001383225 -0.008312053 0.13771142 0.005241783 0.00581336 0.03959136 0.008605941 0.010104121
-0.006575771 -0.009254489 -0.032159075 0.011224446 0.008518142 -0.15699445 0.040703017 -0.19440849
0.006603955 0.009227698 0.010791343 0.008139857 0.009601816 -0.00576332 -0.028151035 -0.03412061
0.007539658 0.03109028 0.0101868035 0.00608377 0.0009932294 0.09857925 0.006153103 -0.00803097
-0.053876244 -0.14456467 0.07104014 0.007676417 -0.052533586 0.013870893 0.006935339 0.045358367
0.06735235 -0.015937863 0.0060736244 0.008544898 0.057398535 -0.027110323 0.0014248281 0.0086106695
0.007237786 -0.005958668 -0.10253881 0.203288 -0.009050566 -0.23218986 0.006975489 0.0065755756
-0.26094913 0.00031977793 0.005996905 -0.035838023 0.0071278894 0.029030003 -0.041394938 0.007929005
0.05853065 0.009042628 0.08377148 -0.00423348 0.020059306 -0.00213918 0.1522181 0.006737022
0.042127825 0.010893128 -0.20554622 0.007861013 0.0060152975 0.0016582047 0.009301621 0.05228363
0.0063475873 -0.05905076 0.006983468 -0.024317043 0.101603135 0.007009756 0.041293796 0.0078054043
