checkpoint_critic.pth (torch_old, 581485 bytes, 9 tensors)

normalizer.weight f4 [24]
000000 3b 9e 78 3e f8 e4 e1 3d 22 8f 1c 3e 37 c5 45 3e
       0.2427911 0.110300004 0.15288976 0.19313513
000010 46 2f 12 3f 43 4e 90 3e 00 ec c8 39 c7 42 05 3b
       0.57103384 0.2818471 0.00038322806 0.0020333992
000020 5e c6 60 3e 5c a2 fb 3e ee fc 1d 3b 64 d1 1d 3e
       0.21950671 0.49147308 0.0024107057 0.15411907
000030 4c a6 b2 3e 4f 19 36 3e db 83 c1 3d de 3d 95 ba
       0.348925 0.17783092 0.094489776 -0.0011386236
000040 0d 1b b6 3e cb 13 78 3d 08 78 01 3e f4 ef 65 3e
       0.35567513 0.06056575 0.12643445 0.22454816
000050 f7 c4 2c 3f e5 19 ee 3e 27 0a 03 3d 6a f3 b6 3d
       0.67488045 0.4650413 0.031992104 0.08933146

normalizer.bias f4 [24]
000000 42 a5 e2 bc bd 02 f2 3c c0 6f 84 3b 04 33 62 bd
       -0.027666692 0.029542321 0.004041642 -0.055224434
000010 89 3c d6 3c 20 2f 57 bb d1 b6 f4 3a e8 84 48 be
       0.026151912 -0.0032834485 0.0018670206 -0.1958195
000020 2b 2b 84 3d 40 7d 90 3d 50 b1 1f ba 5d ba 3f bd
       0.06453546 0.070551395 -0.000609179 -0.04680859
000030 47 a9 0f 3d 9c 1f 14 bd 92 2c 8d bc 2c d7 90 bc
       0.035073545 -0.036162958 -0.017233167 -0.017680727
000040 f7 4e bc 3c 03 e8 50 be 87 93 5c 3c 64 1e 88 bc
       0.022986872 -0.20401005 0.013462908 -0.016616054
000050 e0 7f 08 3d e6 de ff bc f2 96 4f bc a1 aa 1f bd
       0.033325076 -0.031234216 -0.0126702655 -0.038981084

normalizer.running_mean f4 [24]
000000 49 f7 ed c0 f1 29 43 bf 8b 4e 83 40 f2 89 0f be
       -7.436436 -0.7623587 4.103338 -0.14017466
000010 7a b9 f9 3c fc 5b 86 40 8b 4e 83 40 f2 89 0f be
       0.03048395 4.1987286 4.103338 -0.14017466
000020 dd 4c ef c0 d4 6b 42 bf a7 0e 87 40 0e c1 0f be
       -7.4781327 -0.7594578 4.2205386 -0.14038488
000030 b7 5e 04 3d 61 80 86 40 a7 0e 87 40 0e c1 0f be
       0.03231689 4.2031713 4.2205386 -0.14038488
000040 03 be f0 c0 82 ce 41 bf 1a c8 82 40 38 d8 31 be
       -7.523195 -0.7570573 4.0869265 -0.17367637
000050 ad 92 13 3d 59 6b 86 40 1a c8 82 40 38 d8 31 be
       0.036028553 4.200604 4.0869265 -0.17367637

normalizer.running_var f4 [24]
000000 40 55 7b 41 f5 aa 94 3f 48 6b f2 43 87 8b 6d 41
       15.708313 1.1614672 484.83813 14.846564
000010 56 5c d9 41 a1 af 00 40 48 6b f2 43 87 8b 6d 41
       27.170086 2.0107195 484.83813 14.846564
000020 5a cb 78 41 8f ec 94 3f 65 c4 f0 43 4c 12 6c 41
       15.549646 1.1634692 481.53433 14.754467
000030 10 59 dc 41 ae 3b fc 3f 65 c4 f0 43 4c 12 6c 41
       27.543488 1.9705713 481.53433 14.754467
000040 79 ed 74 41 06 87 94 3f 43 49 f2 43 39 25 72 41
       15.307977 1.1603706 484.57236 15.134088
000050 a3 a3 df 41 c2 3b fa 3f 43 49 f2 43 39 25 72 41
       27.9549 1.9549487 484.57236 15.134088

fc1.weight f4 [512, 24]
000000 7f 31 72 3c a0 1f 2c bc 9e b2 53 bd a3 bd eb bc
       0.014782309 -0.010505587 -0.051684014 -0.02877695
000010 b2 2e 23 be 60 79 b2 3d 9c 61 07 bd 16 8e f2 3b
       -0.15935782 0.08714557 -0.033052072 0.007402192
000020 e1 08 2c 3d fe 38 a9 bc 1d a3 af 3d 72 4c 2a 3c
       0.042000655 -0.020657059 0.08576033 0.010394203
000030 af 89 d7 bd 45 1a 91 3d 6d c3 35 3d 13 45 d1 3c
       -0.10524308 0.07085089 0.044375826 0.025545632
000040 bc 84 b0 3d a6 5b b1 3c 10 d1 e9 3b ed 25 a3 bc
       0.08619067 0.021650147 0.007135518 -0.019915545
000050 7a c9 ea bc 59 94 0c 3e f5 79 38 bc 9f 39 23 bc
       -0.028660525 0.13728465 -0.011259546 -0.009962468
000060 3a 08 02 3e d5 d1 bb bd 4e de 5a bd e4 1e b5 3d
       0.1269845 -0.09170882 -0.053434663 0.088437825
000070 e4 c5 99 3b bc 36 c4 3d d4 c6 6e 3c 58 91 18 3e
       0.00469278 0.09580752 0.0145737715 0.14899194
000080 51 b0 46 bb d5 2b 11 bd 49 1b 57 bd d3 f7 70 3d
       -0.0030317495 -0.035442192 -0.052516256 0.058830094
000090 3d 7f 06 3c d2 ee f3 3d ee f5 6f bd 0c 65 3c 3d
       0.008209047 0.11910786 -0.058584146 0.045994803
0000a0 af 42 ce 3c cd 69 f9 3d e1 30 8a 3d d7 dd ea 3c
       0.025178282 0.12178383 0.06747604 0.028670235
0000b0 5b d4 8b bd 9b 54 31 bd 94 b5 36 3d e2 b0 23 3d
       -0.06827613 -0.043293577 0.04460676 0.03996361
0000c0 ca 64 ca 3e aa dc 00 3f e9 66 03 be bc 05 a3 3d
       0.3953002 0.50336707 -0.12832226 0.07960078
0000d0 a3 c3 57 bc d0 3e 08 bf b0 58 02 bd 1e 24 c1 3d
       -0.013169202 -0.53220844 -0.03182286 0.09430717
0000e0 cb e1 f5 3c e4 be 0d be 2a 0a 7c 3e 4b 0b 31 3e
       0.030014893 -0.1384235 0.24613252 0.17289464
0000f0 8f d8 08 3d 89 9a 3e bd 7f c3 93 3e b2 2b 01 3e
       0.03340965 -0.046534095 0.2886009 0.12614325
000100 d2 41 99 be 19 04 0f bd 8a b8 03 3e 09 94 c0 3c
       -0.2993303 -0.034916017 0.12863365 0.023508089
000110 28 c7 00 bd d1 2d 9f 3e ff 17 0e 3e 8f 72 93 3c
       -0.03143993 0.31089643 0.13876341 0.017998962
000120 ee 4f 02 3e fb 17 37 3d 80 7d 73 3d 05 57 28 3d
       0.12725803 0.044700604 0.059445858 0.041098613
000130 9c 0c 0a 3e d2 e8 0b be 26 c8 db 3c 3d 0f b2 3d
       0.13481373 -0.13663033 0.026828837 0.08694313
000140 95 3c fb 3d 30 60 88 3d cc 13 af 3c 55 0a de 3c
       0.122674145 0.06658971 0.021371745 0.027104536
000150 0b 6e 51 bd 71 c9 db bd a6 8e eb 3a 19 f9 76 3d
       -0.051130336 -0.10731781 0.001797159 0.06029615
000160 26 a6 eb 3d dc 27 db 3d 12 ac e4 bc 93 2f 48 3d
       0.115063 0.10700962 -0.02791408 0.048873495
000170 37 66 bf bc d3 d4 8d bd 15 50 e6 bc 98 0e 44 3d
       -0.02336417 -0.069253586 -0.028114358 0.04786548
000180 c8 0f 7e 3a 03 2b 8e bc d4 f2 b7 3b c2 2d b5 bb
       0.00096916826 -0.017354494 0.005613664 -0.0055291364
000190 d1 37 89 3d 77 df dd bd fa dc 30 3d 5a 81 ac 3d
       0.06700099 -0.10833638 0.04317949 0.08423109
0001a0 7d 37 16 bb 10 60 e0 bc cf fe 17 bd 7c e0 aa 3c
       -0.0022921257 -0.027389556 -0.03710824 0.020858996
0001b0 0e 3f 90 3d a4 de a8 3e bf 67 25 bb 93 b4 5e bd
       0.07043277 0.3298236 -0.002523884 -0.054371428
0001c0 d3 88 3c 3b b8 06 1d 3d 3d af 07 bd 31 5c ee bc
       0.0028768077 0.038336486 -0.033126105 -0.029096695
0001d0 8d 11 54 3e 62 90 eb 3d 29 5e 2d bd 0f 73 02 3c
       0.2070982 0.11502148 -0.042326126 0.007962002
0001e0 a6 4b 7e 3d a9 c8 18 bd 0c 24 ac bd 4f fb 99 3d
       0.062083863 -0.03730074 -0.08405313 0.075186364
0001f0 9a 64 32 bc ef 2b d2 bd d6 76 d3 bc 0a 2a a5 3c
       -0.010888243 -0.10262286 -0.025813501 0.020161647
000200 50 3c 86 3c 94 54 bd bc 47 f1 d3 bd 2a 6c 95 3d
       0.016386181 -0.023111619 -0.103487544 0.07296021
000210 5d 40 70 bd 18 10 ef 3c 74 e9 64 bd 49 c0 19 3d
       -0.05865513 0.029182479 -0.0558867 0.037536893
000220 90 5b 88 3d a3 5c bc 3d 91 5b 8a 3d a3 cd 51 3d
       0.06658089 0.091973566 0.06755746 0.0512215
000230 b5 c9 db 3d 6c 44 36 3c f8 72 05 3d ed 49 b1 3d
       0.10731832 0.0111247115 0.032580346 0.08656678
000240 3b 31 e1 3d e6 da 1f 3d 8e 61 e5 3c 5d dd 2c bd
       0.10995718 0.039027117 0.02800062 -0.042203296
000250 a2 19 f1 bb 4d 2f c0 3d 9d 69 50 3c f0 67 cb 3d
       -0.007357792 0.09384022 0.012720493 0.09931934
000260 d6 d7 a9 3d 54 a6 da bc a5 15 35 3e 30 c8 75 bb
       0.082931206 -0.02669064 0.17684038 -0.0037503354
000270 c2 21 a0 bd 7a 97 c4 3d d4 7a 77 3e e0 4f bb 3d
       -0.07818939 0.09599204 0.24167949 0.09146094
000280 80 30 2e 3e 8f 99 87 3d 47 1f 5e 3d 9f 7f 3f 3c
       0.17010689 0.06621086 0.054229047 0.011688142
000290 e7 08 3a be a3 b5 8b bc 9d ed d9 3c 0e 40 00 3c
       -0.18167458 -0.017054385 0.02660256 0.007827772
0002a0 a0 37 1e bd df 66 cb 3c 09 2c 3d 3d 86 0a 91 3c
       -0.038627267 0.024829326 0.046184573 0.017705213
0002b0 c2 cd 9b 3b ae 12 8b 3d dd 79 3a bd 0e a6 78 bc
       0.004754753 0.06790672 -0.045526374 -0.015176309
0002c0 70 9c 31 be 76 7c 95 3d 06 35 d1 bd ad 1d 17 3d
       -0.17344832 0.0729913 -0.102151915 0.036893535
0002d0 c9 16 08 3d c0 13 b7 3d 87 04 e5 bd b1 cd d5 bd
       0.033224855 0.08939314 -0.11182504 -0.10439623
0002e0 98 03 ec 3c 49 29 72 bd 21 d5 12 3e d9 cd c0 3d
       0.028810307 -0.059121404 0.14339115 0.09414262
0002f0 65 4b 63 3e c1 e2 b4 3d e2 3f 07 3e 70 c5 80 3d
       0.2219673 0.088323124 0.13207963 0.06287658
000300 8f 89 21 3d 34 8b 42 3c b6 bf 99 3c 41 07 ae 3c
       0.039437827 0.011874009 0.018768173 0.021243693
000310 6a 67 41 3e 32 3c f4 bc ce 1d 8f 3d 50 46 0f 3e
       0.18887106 -0.02981386 0.06988107 0.13991666
000320 39 64 20 3d f3 b2 1f 3c b0 6b 5e 3b e7 f5 8c 3d
       0.03915808 0.009747255 0.0033938698 0.0688284
000330 18 8e 1e 3e 0d 60 02 3e 15 b4 4a 3c 8c b9 10 3e
       0.15483892 0.12731953 0.012372036 0.1413328
000340 91 1c 50 3d c3 af a2 3d 28 3f 8f bc 42 e3 bd 3d
       0.050808493 0.0794368 -0.01748617 0.092718616
000350 4d 8e 33 3e 3b b9 c8 3d 30 26 93 3c 21 57 0a 3e
       0.17534752 0.09800955 0.017962545 0.135098
000360 fc 95 d7 bc 59 71 10 be c0 72 a5 bb e9 fa 5a 3c
       -0.026316635 -0.14105739 -0.0050490797 0.013365486
000370 20 45 82 bc bf e4 ec 3c 9c 6b 25 bd 4f 42 0a bc
       -0.015902102 0.028917668 -0.040385827 -0.008438661
000380 15 42 7b bb 64 c6 c1 bd b8 2c 22 3c 6b cb cb 3d
       -0.0038338949 -0.09461668 0.009898357 0.09950908
000390 7f da 86 3a 12 f7 25 3d 03 55 b4 bc 51 e9 46 3d
       0.0010288506 0.040518828 -0.022013193 0.04856235
0003a0 51 c6 de 3a c2 2f a1 3b 58 6b fe 3a 6f be 28 3c
       0.0016996359 0.0049190233 0.0019410653 0.010299309
0003b0 b7 26 6c be 13 65 51 3d 6e 6a c6 3b c2 e1 19 3c
       -0.23061644 0.051121783 0.006055168 0.009392204
0003c0 a4 ce fc 3c 4e 86 f3 bd 98 43 a0 bd 84 15 16 3d
       0.030860253 -0.11890851 -0.078253925 0.036641613
0003d0 58 da dd 3d 8d 69 88 3e 9f ce 2e 3b 9e 0e 67 3d
       0.108326614 0.2664303 0.0026673449 0.056410424
0003e0 b8 0d 2f bd c5 96 e9 bd 88 16 8b bd 8f 65 8d bd
       -0.042737693 -0.1140571 -0.06791407 -0.069041364
0003f0 32 1c b0 3d d6 20 5f bd 0e 46 bf bd ef f0 4f 3d
       0.08599128 -0.054474674 -0.09339534 0.05076688

fc1.bias f4 [512]
000000 6c 0f bb bd 83 ee 82 3c 76 48 51 be b1 ab 3b be
       -0.09133801 0.015982872 -0.20437798 -0.18327214
000010 7e a4 27 be 48 3c 06 3b f5 a5 33 be 98 33 c4 bd
       -0.16371343 0.0020482708 -0.17543776 -0.09580153
000020 a4 17 88 be 20 69 34 bd 7b ba 49 bd 46 3b 38 bd
       -0.26580536 -0.044045568 -0.049250107 -0.044978403
000030 59 2b f5 bd 64 78 26 be 52 e8 aa 3d 70 55 d5 bc
       -0.119711585 -0.16256863 0.08345093 -0.026041716
000040 94 0d 85 bc 5e 65 30 be bc 5c ed 3c 71 e9 48 3d
       -0.016241826 -0.17226169 0.028974883 0.049050752
000050 07 8e 10 bd 5c 48 de bc 3c 60 00 bd ff 3b 1a be
       -0.035291698 -0.027134113 -0.031341776 -0.15061949
000060 8d fe 21 be b9 84 81 bc 38 d6 58 3c 46 44 91 bd
       -0.1581976 -0.015810357 0.0132346675 -0.070931
000070 88 81 67 be b0 97 24 be 3a 19 b9 bd 0a 94 ab 3c
       -0.22608006 -0.16073489 -0.09038015 0.020944614
000080 e2 92 24 be 9a a5 c1 bc aa e6 5d 3c 5d 52 31 be
       -0.16071656 -0.023638535 0.013543764 -0.17316575
000090 b1 0b 20 bd 67 36 06 be 01 0a 76 3c 8b 8d 0a 3d
       -0.03907365 -0.1310669 0.015017034 0.033826392
0000a0 e4 22 9b be 34 59 8d 3c a5 52 a9 bd 75 d1 80 be
       -0.30300057 0.01725445 -0.08267716 -0.25159803
0000b0 ae 02 c0 3c cf e9 80 bd fb eb 23 bd af 7e 26 be
       0.023438778 -0.062945955 -0.04001997 -0.16259263
0000c0 55 24 41 3d 8d 60 0b 3b 3c 79 d0 bd 0c 70 4f bc
       0.04715379 0.0021267266 -0.101793736 -0.012660991
0000d0 98 3c dc 3c 1a 3f de 38 e5 81 83 3d 05 c0 56 be
       0.026884362 0.000105975385 0.0642126 -0.20971687
0000e0 18 76 24 be 08 98 48 be e1 77 dd bc 98 75 94 be
       -0.16060674 -0.19589245 -0.027034702 -0.28995967
0000f0 3f fe 1a be 2a ad ac bc bf 8d eb bd 00 7d b5 bd
       -0.1513605 -0.021078665 -0.11501645 -0.088617325
000100 b5 18 4c be 7d 15 90 bc b4 56 a7 3c ea 38 5f 3c
       -0.199313 -0.017588371 0.020427085 0.013624409
000110 4c fa 4d 3d 39 9e 22 be 6f 76 15 be 30 70 35 be
       0.05028753 -0.1588067 -0.1459596 -0.17718577
000120 1e 66 04 be f6 47 17 3d 42 f5 42 be f5 40 04 3d
       -0.1292958 0.03693386 -0.19038871 0.03228851
000130 bb 92 8e 3c b0 01 1f bd 04 ff ad bd bf 0a 97 bd
       0.01740395 -0.03881997 -0.08495906 -0.073750965
000140 24 93 44 3c 4c 37 18 be ad ca 4f 3b 25 6c 3a 3a
       0.011997972 -0.14864844 0.0031706498 0.00071114517
000150 b5 15 02 be cf 27 e8 3d fe 47 04 be 97 a9 de bd
       -0.12703593 0.11335718 -0.12918088 -0.108721904
000160 ac c0 15 be 75 fb 0d bd 03 fb 27 bd 58 9f 5e 3b
       -0.1462428 -0.034663636 -0.041010868 0.0033969488
000170 c4 94 69 bd 31 5b 7c 3d f5 be c2 bd ba 5f 4c be
       -0.05702664 0.061610404 -0.095090784 -0.19958392
000180 c3 b1 a7 bc 58 2f 8f bd f7 34 d6 bc 50 ff 79 bd
       -0.020470506 -0.06991452 -0.026148302 -0.0610345
000190 97 8f 3b be 15 52 43 3c 23 b4 b5 3d 41 4f 21 bd
       -0.18316494 0.011921425 0.08872249 -0.039382223
0001a0 bd 88 21 3c fe 12 6b bd 74 42 1a bd 1b 33 a0 3c
       0.009859261 -0.05739116 -0.03766103 0.019555619
0001b0 69 36 e6 bd e8 c3 9b bd 0d e6 03 be 53 6b e8 bd
       -0.11240847 -0.076057255 -0.12880726 -0.113485955
0001c0 3e bd 47 3d 7c 03 dc 3c 53 ba fc bd 14 81 56 be
       0.04876446 0.02685713 -0.12340226 -0.20947677
0001d0 81 74 80 bd 95 c3 60 be 93 d5 6c bc fd 4d 34 be
       -0.06272221 -0.21949609 -0.014455217 -0.17607875
0001e0 e6 39 9e bd b8 08 a0 bc 8b 2b 87 bc 5b 74 86 3c
       -0.07725887 -0.019535407 -0.016500255 0.016412904
0001f0 bf ec 8e 3c af da 14 bd fc 98 43 be 09 8e 1c bd
       0.017446874 -0.036341365 -0.19101328 -0.038221393
000200 10 ef 24 be 4d a9 77 be 8e e4 de bc 27 a8 4b 3d
       -0.1610682 -0.24185677 -0.027208593 0.04972091
000210 ea ac 2a 3c 11 92 10 3d 97 72 91 bd 82 55 9a bd
       0.0104172025 0.03529555 -0.071019344 -0.075358406
000220 4e 91 9d bb 7e f2 15 be f9 56 44 bd dd d5 64 be
       -0.0048085814 -0.14643285 -0.047934506 -0.22347207
000230 ab f2 40 be da 4f 9f bd a4 a8 c1 bd c3 99 2b 3d
       -0.1884257 -0.07778902 -0.09455994 0.041894685
000240 e9 f1 35 bd 67 7b 9b 3d 45 fd 32 bc 41 2f 25 be
       -0.044420157 0.075918965 -0.010924642 -0.16131307
000250 39 bf 41 be f5 49 d7 bd 0e e6 b3 3c 1f b3 52 bd
       -0.18920602 -0.10512153 0.021960285 -0.051440354
000260 53 65 1d bd 67 70 1d bd 6b 34 28 bd 15 f3 25 be
       -0.03842671 -0.038437273 -0.041065615 -0.1620601
000270 df c6 3c be 73 f0 83 be 5e ae de 3b 3e bc 22 be
       -0.18435238 -0.25769386 0.0067956885 -0.15892121
000280 78 2f 45 be 23 a4 88 3d 20 e8 0f be 33 9e 34 be
       -0.19256389 0.066719316 -0.14053392 -0.17638473
000290 83 76 46 3d c1 b1 a8 bc 40 e6 76 be c2 7c a1 3b
       0.048452865 -0.020592572 -0.24111271 0.0049282024
0002a0 20 6f 82 bc 98 b7 3e be ec d9 f1 bd ce 3d 52 bd
       -0.01592213 -0.18624723 -0.118091434 -0.051328473
0002b0 3b 50 4b be 93 c4 c9 bd ba a0 8a bd 36 57 9c bd
       -0.19854824 -0.09851947 -0.067689374 -0.07633822
0002c0 92 f4 3b be fd 2c 84 bd a3 74 2b 3d 3a 41 54 bc
       -0.18355015 -0.06453893 0.04185928 -0.012955004
0002d0 ca 79 81 bc fa dd 15 be 06 f7 2b be 46 4b 0b 3e
       -0.015805144 -0.14635459 -0.1679345 0.13602933
0002e0 a8 75 3c be 42 57 68 3d 18 69 93 bd d8 e0 c7 bd
       -0.18404257 0.05672384 -0.071977794 -0.097596824
0002f0 c3 ea 8d bc 0b 77 1d bd 8e 9b 92 3c 1a 80 6b 3d
       -0.017323857 -0.038443606 0.01789644 0.057495214
000300 da 7c ee bd 86 9e 5e 3d 21 6a 17 bd b6 d4 24 be
       -0.11644907 0.0543504 -0.036966447 -0.16096768
000310 6d 06 28 be 7e 51 84 3c d8 03 7c 3c b0 dc 67 3d
       -0.16408701 0.01615214 0.015381776 0.05660695
000320 59 58 7e 3c 1d b6 47 be e4 d9 e0 bd a8 e6 1c bc
       0.015523993 -0.19503064 -0.10979059 -0.009576477
000330 fb 5f 27 bd d5 94 27 be df a0 23 3d e1 ec df bb
       -0.04086302 -0.16365369 0.03994834 -0.006833658
000340 ac a7 a9 3b 59 4c 54 3d 65 98 03 bd 48 85 80 3c
       0.0051774587 0.051830623 -0.032127757 0.015688553
000350 fe dd 64 3d 6f 45 f2 3c fe 97 77 be b5 46 2d be
       0.05587577 0.029574124 -0.24179074 -0.16921504
000360 77 47 a5 3d 0a cd 35 3c 89 c2 d8 bd a9 0a 8e 3d
       0.080702715 0.011096248 -0.1058398 0.06935627
000370 e5 ed 6b bd 87 8f 07 3d 50 a4 65 bd 23 be bb bb
       -0.05759992 0.033095863 -0.056064904 -0.005729453
000380 38 15 28 be f4 5e be 3d 81 f2 dd 3c 13 81 b8 3d
       -0.16414344 0.092954546 0.027093174 0.09008994
000390 45 fb ba bd ba b0 8b 3d 92 d0 2d 3d 78 a7 ee bd
       -0.09129957 0.06820817 0.042435236 -0.11653036
0003a0 66 12 3a 3c ec ba 82 3d 08 e6 17 3d 2e ec 61 bd
       0.011356926 0.06383309 0.03708461 -0.05515688
0003b0 ae aa a8 bd 04 f7 22 3d 17 a1 02 be 4e bd 8f 3c
       -0.082356796 0.039786354 -0.12756763 0.017546322
0003c0 9a f9 54 bc 72 4d a1 3c 2b a6 3e be 9d 46 9f bd
       -0.012998963 0.01969025 -0.18618076 -0.0777714
0003d0 5c 3c 3c be 80 1e 86 bd 50 e6 49 be 97 b9 78 bc
       -0.183824 -0.06548786 -0.19716763 -0.015180967
0003e0 36 6e 88 be c6 a6 d0 bd 09 df b1 3d db 32 b4 bd
       -0.26646584 -0.101880595 0.08685119 -0.087987624
0003f0 d0 dc 41 be 50 ea 69 3d b7 3a 3b be a3 d1 2d bd
       -0.1893189 0.057108223 -0.18284117 -0.042436253

fc2.weight f4 [256, 514]
000000 5e 83 c2 bd 33 11 81 bd b9 c0 06 be 69 b7 33 3d
       -0.094977126 -0.063021086 -0.13159455 0.043876085
000010 83 dc 8d 3e e7 f7 59 3d 0a 47 96 bd a1 0c 87 3d
       0.277073 0.053214934 -0.073377684 0.06594206
000020 2c ab 30 3d 83 5e 91 bd 55 a2 5f bc 97 38 1e 3d
       0.043131992 -0.07098105 -0.013649543 0.038628187
000030 34 90 63 bd 02 64 d4 3d eb 42 d8 3b c6 7d ad 3d
       -0.055557445 0.103706375 0.006599774 0.08471255
000040 d6 d2 8a bd 67 23 a8 bd 30 23 89 bd a2 28 1d bc
       -0.06778495 -0.082098775 -0.066961646 -0.009592207
000050 f1 d8 c3 3d 1a 08 a7 bd c4 4f 74 3c e4 02 9f bd
       0.09562863 -0.08155842 0.014911596 -0.07764223
000060 52 bf 55 3d 1d fb 17 3e 44 af 0b 3d c2 66 9a 3d
       0.05218441 0.14841886 0.034102693 0.07539131
000070 e7 73 e3 bd f1 e3 60 3d 95 cd ac 3b 27 7a 17 bd
       -0.11106091 0.054904882 0.0052735307 -0.036981728
000080 16 80 e0 3d 89 20 1a bd ee ce 3d bd 05 aa 8f 3e
       0.109619305 -0.037628684 -0.04633992 0.28059402
000090 1d 58 1c 3b 38 20 54 3e 00 3f aa bd 85 a8 0c 3d
       0.002385623 0.20715415 -0.083127975 0.0343404
0000a0 48 5a 34 3e f5 20 5a bd 60 f3 06 bc 65 57 64 bd
       0.17612565 -0.053254087 -0.008236736 -0.05574741
0000b0 43 3e 3c bd 84 cf 52 3d ea 8f cf bb 05 04 68 bc
       -0.045957815 0.051467434 -0.0063342946 -0.014161115
0000c0 a5 59 00 3c de 34 94 bc b7 08 b7 ba ec e7 70 bc
       0.007833873 -0.018091615 -0.0013964389 -0.014703732
0000d0 b8 8b 71 3c ce c1 5b 3d 6a bb 06 3a de a0 25 3e
       0.014742784 0.053651623 0.0005139621 0.16174647
0000e0 82 9c 33 3d 15 88 98 3d cb cc 6f 3c 3d 5b 3b 3e
       0.04385043 0.074478306 0.014636229 0.18296523
0000f0 44 c8 7e 3e 1c 84 18 bc de 9c 3d bd 4a 89 a4 bd
       0.24881083 -0.009308841 -0.04629218 -0.08033998
000100 ba 96 15 3d 61 45 8b 3c 6e 31 bf bc df 2a 11 bd
       0.036520697 0.017000856 -0.023339 -0.035441276
000110 0d 1f 83 3d a9 15 20 bd 4c 58 15 be 0a df 61 3e
       0.06402407 -0.039083157 -0.14584464 0.22057739
000120 f1 ce 21 3e 0c 0d 1f 3d e3 d3 1e 3d 2b 34 8e 3d
       0.15801598 0.0388308 0.03877629 0.06943544
000130 a0 78 27 3c fd 69 ef bd 8d 62 63 3d bd cb 19 bd
       0.01022163 -0.116901375 0.055513907 -0.037547816
000140 cb 3b 65 bd b4 09 49 3e 26 a1 a5 bd 06 1f c8 bd
       -0.055965226 0.19632608 -0.08087377 -0.09771542
000150 b5 d3 23 3e c2 af ac bc 4b b5 e9 3c e0 3e 0b bd
       0.15998729 -0.021079902 0.02852883 -0.03399551
000160 e7 74 18 be 6b 3e d9 bd 19 1c dc 3d e7 15 8a bd
       -0.14888345 -0.106076084 0.10747547 -0.06742459
000170 bd 9c fb bd 0e 3d 32 bb 3b 7c 3c be 88 58 26 3e
       -0.12285755 -0.0027197036 -0.18406765 0.1624471
000180 e8 fd fc bc 8b 1d 59 3c ea ca 40 bd be 0a 71 bd
       -0.03088279 0.0132516725 -0.047068514 -0.058848135
000190 11 bf 31 be 15 92 86 3d 11 95 49 3d f6 58 b7 3d
       -0.17358042 0.06570832 0.049214426 0.08952515
0001a0 be 26 73 3c 74 ca cd bd 37 52 8a 3d bb 78 86 3d
       0.01484078 -0.100483805 0.067539625 0.06565996
0001b0 8d ae 08 be b1 a5 5d bd 0e 44 03 3e 56 bc 27 bd
       -0.13347836 -0.054113094 0.1281893 -0.040951096
0001c0 fc 96 80 bc ef b4 6d bb e0 4f ad bb 11 10 79 bd
       -0.015696995 -0.0036271175 -0.005289063 -0.060806338
0001d0 4d a1 34 bb b9 b7 6e 3b 50 08 85 b9 4b 01 64 3c
       -0.0027561963 0.0036425425 -0.0002537393 0.013916324
0001e0 d0 00 80 3c 7c 8f 9e bc c6 25 39 3a 9c f3 8c 3d
       0.015625387 -0.019355528 0.00070628186 0.06882402
0001f0 4b bc 81 3d dd 24 be bc 12 cc 24 3d 96 32 97 3d
       0.06334742 -0.023210937 0.04023368 0.073826954
000200 8a 3e 28 bd 06 47 cd bd be 8f f3 ba 68 aa 8b bd
       -0.041075267 -0.10023312 -0.0018582267 -0.06819612
000210 e5 aa db 3d 45 44 d8 3c ff b5 2e be 62 85 b5 3c
       0.10725955 0.026399741 -0.17061614 0.022158328
000220 85 1b 12 bd 90 02 2f be b9 11 f4 3c 3c df e7 3d
       -0.035670776 -0.17090821 0.029793607 0.113218755
000230 45 67 e8 3b f5 cd e4 bd a3 e4 6c bc 57 56 95 ba
       0.007092389 -0.11172096 -0.014458808 -0.0011393529
000240 8e e4 91 bd a9 35 94 3d bc a8 ad bc 80 5e 3f 3c
       -0.071236715 0.07236797 -0.021198623 0.011680245
000250 c0 1c 24 bb 23 34 df bc ac 46 72 3d 1e fc 35 3e
       -0.002504155 -0.02724654 0.05914943 0.17771956
000260 45 a4 19 3d d0 1f eb bc 15 7f 76 bb a0 8e 8c 3d
       0.037510175 -0.028701693 -0.0037612368 0.06863141
000270 f0 4f 20 bd b9 0c 4d 3e 57 70 5f bc 1c 51 37 bd
       -0.039138734 0.20024385 -0.013637624 -0.044755086
000280 44 f9 90 bd 00 0d 71 3c 8d 35 7c bc 86 53 83 bd
       -0.07078794 0.014712572 -0.015393627 -0.06412415
000290 0f 0b 17 3d ca eb 07 be 5a d5 df 3b 4f 6b 01 3d
       0.03687578 -0.1327354 0.0068308534 0.031596478
0002a0 fb 9d 7c bd 3e 05 4d bd 09 23 46 3e 5e 99 23 bd
       -0.0616741 -0.050053827 0.19349302 -0.039941184
0002b0 e1 06 b2 bb e7 f3 51 bd 47 67 ba 3c 39 6d ac 3d
       -0.005432949 -0.051257994 0.022754325 0.0841927
0002c0 55 94 13 3e e7 5d f2 bc d3 b1 42 3d ec 61 d4 3b
       0.14412053 -0.029585792 0.047532868 0.0064813998
0002d0 29 84 f5 3c d1 57 21 3e 10 c7 81 3d ee 02 5c 3d
       0.029970245 0.15756156 0.06336796 0.05371373
0002e0 64 46 83 3c 1f f6 35 3d b6 49 08 3e 87 72 74 bd
       0.016024776 0.044424172 0.13309368 -0.059679534
0002f0 f7 14 38 bc 76 5d 72 3d 82 41 18 3d 75 60 49 bc
       -0.011235467 0.059171163 0.037171848 -0.012291064
000300 fd ad eb 3c 6c 2c 0f bd e8 82 13 be 3e 5e d9 bb
       0.028769488 -0.034954473 -0.14405406 -0.006633549
000310 52 f1 f7 3c 89 22 6a bd ba f3 22 3d 40 05 85 3c
       0.030266438 -0.05716184 0.039783217 0.016237855
000320 8b 27 17 bd 5c 99 1d bc cc a1 43 be c2 eb 83 3c
       -0.036902945 -0.009619083 -0.1910469 0.016103629
000330 eb b2 b8 3c aa ea 64 3d 46 b8 23 3d 47 f1 22 3c
       0.022546252 0.055887856 0.03997066 0.00994522
000340 eb 69 09 be da 88 97 3c 88 ce 49 3d d2 97 5d bc
       -0.13419311 0.018497873 0.04926923 -0.013524966
000350 81 73 ed bc 68 5c 96 3d 19 94 8c bc 12 33 34 3c
       -0.02898574 0.07341844 -0.017160462 0.010998504
000360 53 41 a0 bd d9 9a f1 3b 6c cf 5c bc 1c b2 20 3d
       -0.078249596 0.0073731956 -0.013477188 0.03923236
000370 e6 2d 2b be b3 c1 ce 3c 7f f0 dd 3c 68 48 46 3b
       -0.16716728 0.025238847 0.027092217 0.003025556
000380 5d 4c ba bb 45 23 65 3c f7 37 91 bd c7 c8 a5 3c
       -0.0056853727 0.01398546 -0.070907526 0.02023734
000390 57 31 67 3d cc bc 34 bc e4 4d 8b 3c 4d 95 0b 3c
       0.05644354 -0.011031341 0.017004915 0.008519483
0003a0 a8 7d 16 be f3 03 1b 3d 77 e1 51 3c 1a 65 5d bd
       -0.14696372 0.037845563 0.012810103 -0.054051496
0003b0 c2 e3 35 3c 7a bd 5a 3b d0 f4 25 bc 64 df 55 bc
       0.011101665 0.0033377097 -0.010129169 -0.013053749
0003c0 22 17 9d 3b 70 89 60 3d a1 75 4e bd 2b a4 1b bc
       0.0047940174 0.05481857 -0.05040515 -0.00949959
0003d0 41 00 91 bd a6 3b 95 3c 18 78 13 be e6 e3 3e 3d
       -0.070801266 0.01821692 -0.14401281 0.04660406
0003e0 9a d2 c6 bd 1d 38 b5 3c b8 fb 61 3d bd 2b 39 3e
       -0.09708138 0.022121483 0.0551717 0.18083091
0003f0 2d 06 d2 3c b8 d9 c2 bd 7d 26 7b 3d 4e 49 60 be
       0.02563771 -0.09514183 0.061316002 -0.21902964

fc2.bias f4 [256]
000000 62 1c 55 bc 6b eb 3d bc b2 51 ad bc a9 c3 86 bd
       -0.013007255 -0.011591773 -0.02115712 -0.06580288
000010 da 10 2b bd 78 0b 57 bc 70 a5 50 bc 7f c0 30 bd
       -0.041764118 -0.013125293 -0.012734756 -0.04315233
000020 e0 7f a0 bc f1 0c 38 bb 04 3d de bb da da 1e 3d
       -0.019592226 -0.0028083886 -0.006782176 0.038782932
000030 f4 90 3c bc 77 25 75 3c 33 e2 88 3c 90 95 70 bc
       -0.011509169 0.014962546 0.016709423 -0.014684096
000040 78 de eb 3b ec 37 84 3b 0e d8 ab 3d af ce 65 3d
       0.007198151 0.0040349867 0.083908185 0.056105312
000050 67 9c bc bc 1d 55 20 bd c9 64 25 3c d4 15 d7 3c
       -0.023023797 -0.03914367 0.01009483 0.026255526
000060 0a ee be bb 15 04 9c 3c ec 63 91 3d 3a 68 48 3d
       -0.0058267163 0.019044915 0.07099137 0.048927523
000070 33 39 99 bd b7 1e 26 bd 13 3a f9 3c 8b 00 18 bb
       -0.07481613 -0.040556636 0.0304232 -0.0023193683
000080 6f 0d 04 bc 7a 36 a8 bc 15 91 ca 3c b1 03 49 bd
       -0.008059843 -0.020533789 0.024727384 -0.049075786
000090 5e 5b cb 3c b2 b1 91 3d eb 58 35 3d 35 c1 b3 bc
       0.02482384 0.07113971 0.044274252 -0.021942714
0000a0 44 40 95 3a 61 00 2b bd ac 5f 82 3d 32 2e 42 3d
       0.001138695 -0.04174841 0.06365904 0.047407337
0000b0 7f 79 84 3c 1c 16 6e bd 0f df 1c 3c 59 91 8e 3d
       0.016171215 -0.058126554 0.009574666 0.069613166
0000c0 a7 13 fb bc db 74 4c bb a5 47 96 bc af 23 a3 3d
       -0.03064902 -0.003119758 -0.01834471 0.079657905
0000d0 ed d1 8b bc 17 40 83 bd 45 f7 42 3d 7f 33 2c bb
       -0.017067874 -0.064087085 0.047599096 -0.0026275811
0000e0 ab 9a 38 bd 51 d0 0e 3c 15 67 3c 3d 05 87 06 3d
       -0.045069378 0.008716659 0.045996744 0.03284361
0000f0 05 a0 9e 3c e6 f7 51 bb 68 15 93 3d f1 3b 0f bd
       0.019363413 -0.0032038628 0.07181817 -0.034969274
000100 b6 e9 51 3d 1c e1 bc 3c a4 5f 9c 3b 64 8c 90 bc
       0.051248275 0.02305656 0.0047721434 -0.017645068
000110 89 d9 3d 3d 83 16 3c 3d 52 62 ab bc 43 26 23 bd
       0.046350036 0.045919906 -0.020920906 -0.03983141
000120 70 41 dd bd 4e a8 59 bb d9 9f 36 bd 9d ec 81 3d
       -0.10803497 -0.003321189 -0.044586036 0.063439585
000130 83 03 1f 3d e3 00 08 3d 5e ff 56 3c 62 18 0e 3d
       0.03882171 0.03320397 0.013122408 0.034691222
000140 af 79 29 3d c4 73 71 3d c5 46 f2 bc 88 4e 59 3c
       0.041375812 0.058948293 -0.029574761 0.013263352
000150 03 f7 9e 3d ff 6b 1d bd d2 48 b2 bc 10 d7 41 bd
       0.077619575 -0.03843307 -0.021763239 -0.04732424
000160 67 13 7c bd ff 2a 30 3d ee 05 8d 3d 6b 5c 84 3c
       -0.06154194 0.043009754 0.068858966 0.01615735
000170 c0 72 50 bd 09 81 95 bd ed 4a c7 39 22 bc a0 3d
       -0.050890684 -0.07300002 0.00038012062 0.078483835
000180 26 b2 15 bd 20 6f 06 bd e5 66 ec bd 79 43 83 bb
       -0.03654685 -0.03282082 -0.11543063 -0.004005846
000190 f6 70 6c bd fb 2a 62 bd 44 14 31 bb f1 96 9a 3c
       -0.057724915 -0.05521677 -0.0027020136 0.018870803
0001a0 b5 5a 04 bd 4d 56 02 bd cc e4 01 3d d7 e8 7d bd
       -0.032313067 -0.031820584 0.03171234 -0.06198963
0001b0 92 48 90 bd ec f4 7c 3c 12 98 2b bd 61 dc ab bb
       -0.07045092 0.015439253 -0.041893072 -0.005244777
0001c0 b3 b3 73 3d 8a 1f d4 3c 72 4d bf 3d eb 34 32 bd
       0.059497546 0.025893945 0.093409434 -0.043507498
0001d0 47 2b 46 bc 69 6f 9c 3d 00 dc 3d bb 04 ea 00 3d
       -0.012095279 0.07638437 -0.0028970242 0.031473175
0001e0 5d 40 80 bd 1c ef ca bc 21 31 9f 3b c2 6a 77 bb
       -0.06262276 -0.02477222 0.0048581515 -0.0037752842
0001f0 31 a2 42 3b 2e 78 17 3d f0 00 67 bd 31 2d b4 3b
       0.0029698724 0.036979847 -0.05639738 0.0054985513
000200 18 ca 53 bd 8d 40 b2 3d 8e 5a 7e 3c cd a9 0b bd
       -0.051706403 0.08703718 0.01552452 -0.03409748
000210 6c 29 ac 3d e3 53 73 bc 9d 9c 72 bd 3c 4a 48 3b
       0.08406338 -0.014851543 -0.05923139 0.0030561825
000220 09 45 a0 3d 7e d6 9d bc 6a 85 56 3c 18 18 1f 3c
       0.078256674 -0.019267317 0.013093332 0.009710334
000230 a9 98 ac 3c 88 0f 2f bd 41 e3 05 bd ac 2a 1c bd
       0.021068888 -0.04273942 -0.03268743 -0.038126633
000240 e5 f0 6c 3d 8f a2 cc 3c 0f fc 41 bb f5 8c 3a 3d
       0.057846922 0.024979858 -0.0029599702 0.045544583
000250 b6 88 34 3c 16 9e 6a 3d 2b d6 4c 3b c7 34 14 3d
       0.011018923 0.05727967 0.0031255584 0.036183145
000260 d1 73 63 bd ee 57 70 bd 20 9a c8 3c 0d 9a 59 3d
       -0.055530373 -0.058677606 0.024487555 0.05312543
000270 46 5f 58 3c d6 3f 89 3d e9 3d 94 3d d8 a9 8d 3d
       0.013206309 0.06701629 0.07238371 0.06917161
000280 18 5b 59 3d 13 50 e3 bb 9e f6 86 3c 6d 0c 75 3c
       0.05306539 -0.006937036 0.016475018 0.014956576
000290 53 ae de 3c b8 12 15 3d 4e 5f 53 bc 6f 9d 51 3c
       0.027182734 0.036394805 -0.01290114 0.012793883
0002a0 74 1c 98 3d 39 05 48 3d a3 b1 96 bc 71 8b 27 3c
       0.07427302 0.048833106 -0.01839525 0.0102261165
0002b0 b8 54 87 ba 91 42 06 bc f5 79 b9 3b f4 3f a2 3c
       -0.0010324931 -0.008194582 0.0056602904 0.019805886
0002c0 49 0b d3 bb ae 31 12 bc 0a 8c 0c 3c 6e a0 04 3d
       -0.0064405543 -0.008922977 0.00857831 0.03237956
0002d0 87 3c 4e bd 8b b6 80 3d 8a 13 56 bd 7f 79 5d bc
       -0.050350692 0.06284817 -0.052264728 -0.013517736
0002e0 66 26 9c bc b9 2a f4 3c a8 fa 8f 3d 47 00 f6 bb
       -0.019061279 0.029805528 0.07030231 -0.0075073573
0002f0 0a 60 57 bd 3c 6e 39 3d fd f4 b3 3b 19 eb a8 bb
       -0.052581824 0.045271143 0.0054918514 -0.005154979
000300 42 85 2a bd ce 88 8a bc 95 a6 c5 3c 75 59 2c bd
       -0.04163099 -0.016910937 0.024127284 -0.0420775
000310 39 86 fe bc eb d9 4d bd 27 4e 4a bd 8e b4 6c bd
       -0.031069862 -0.05025665 -0.049390938 -0.057789378
000320 c8 f3 46 bc 4e e1 17 bd d3 d8 77 bd 00 73 69 bd
       -0.012143083 -0.0370801 -0.060509514 -0.05699444
000330 15 67 16 bc 7a 80 86 3d 6c 9b d0 bc ac ce 10 bd
       -0.00917985 0.06567474 -0.025464736 -0.035353348
000340 b0 99 9a bd b5 0b 67 3c dc f4 d7 3c 9e 23 a0 bb
       -0.07548845 0.014101912 0.026361875 -0.0048870584
000350 9b a9 ab bb e3 c0 20 bd 8c 41 aa 3c 2d e0 ce 3a
       -0.0052387244 -0.03924645 0.020783208 0.0015783362
000360 a6 fa 58 bd 91 43 12 3d 40 70 a0 3d 22 c5 78 3d
       -0.052973412 0.035708968 0.0783391 0.060734876
000370 4c 08 07 3c 08 da bd 3b 89 e1 0e 3d aa 85 44 3d
       0.008241724 0.0057938136 0.034883056 0.047979034
000380 68 fe 87 b8 36 0c 8d b9 0f 17 11 bd a5 98 71 3d
       -6.4846885e-05 -0.00026902714 -0.03542238 0.058983464
000390 c2 6a 33 3d 78 eb 3a bd 03 ce 8f bd 40 61 25 3d
       0.043802984 -0.045634717 -0.070217155 0.040375948
0003a0 35 2a b2 3d cc 80 ae 3b cc 3f 2f bc bf 9e 9c 3d
       0.086994566 0.0053254124 -0.010696363 0.07647466
0003b0 44 74 fa bc 1e d3 cb bd 7b 82 2f 3d aa c5 bc 3d
       -0.030573018 -0.09952377 0.042849045 0.09217389
0003c0 ac 6b 95 3c d5 5d 7c bd bb b2 85 3b 39 c9 c7 bc
       0.018239819 -0.061612923 0.004080144 -0.024387943
0003d0 b6 1d 97 3d c8 41 df 3c 6b a8 40 3d 69 a4 20 bd
       0.07378714 0.027253047 0.047035616 -0.039219294
0003e0 d8 9a 5e 3d 76 04 d6 bc ab de 93 3d 18 12 0b bc
       0.05434689 -0.026125174 0.07220205 -0.008488201
0003f0 1d 7f 8c 3d e8 4e 6b bd 62 10 7b bd 05 41 ef bc
       0.068601824 -0.057448298 -0.06129492 -0.029205808

fc3.weight f4 [1, 256]
000000 71 b1 cb bb 09 86 67 bd e5 4a 27 bd 73 69 16 3b
       -0.006216221 -0.05652431 -0.04084291 0.0022951036
000010 97 e7 57 be 0f 0e 44 be 6c 25 8a bb 76 02 62 3b
       -0.21084438 -0.19145988 -0.004215887 0.003448633
000020 d4 08 01 bd 77 cc 1d 3e 4e bf 61 bd f9 cd 09 bc
       -0.03150256 0.15410028 -0.055114083 -0.008410924
000030 bb 6d e4 bb f2 43 4a bd 6a 76 1a bd 29 84 aa 3c
       -0.0069710887 -0.049381204 -0.037710585 0.020814972
000040 47 eb e5 bc a4 6f b0 bb 6a 59 26 3c a0 08 1e 3c
       -0.02806629 -0.0053844023 0.010153154 0.009645611
000050 ae 28 85 3b 68 83 2a bd 39 22 c0 bb 6c f6 4e 3c
       0.0040636873 -0.041629225 -0.0058634547 0.012631994
000060 da 36 9d bb 7b aa ad bc f0 56 49 3c c1 6e 37 3c
       -0.0047977986 -0.021199455 0.012288794 0.011195839
000070 47 3a 1b bd 35 54 ba 39 da 8c 70 be 15 c2 ba bd
       -0.037897374 0.00035539424 -0.2349123 -0.091190495
000080 79 46 3a bd bb 58 4a be 00 e1 9a bb 93 f3 66 3a
       -0.045477364 -0.1976041 -0.004726529 0.0008810099
000090 db 71 45 3c ad a8 59 3c 1f 19 22 3c a2 f0 1c bc
       0.012051071 0.013284844 0.009893685 -0.009578856
0000a0 fe 7c 15 3a f0 f4 10 3e a7 6a 08 3c 96 f1 34 3c
       0.0005702524 0.14155936 0.008326209 0.011043927
0000b0 bb f9 c6 3c 41 ef 9e ba 72 dd 26 bd b8 2d 3d 3c
       0.024289003 -0.0012125747 -0.04073853 0.011546545
0000c0 e5 6f e2 3c 6a 81 26 bd 7e 16 b6 bc 6f 5d 11 3c
       0.027641246 -0.040650763 -0.022227522 0.008872374
0000d0 78 b7 14 3c 6a b5 04 be ae 8e 5a 3c 92 26 34 3d
       0.0090769455 -0.12959829 0.013339682 0.043982096
0000e0 55 2f 0a 3b fc c7 b6 bb 8e 3d 0d 3c 17 a4 9e bb
       0.002108534 -0.005578039 0.008620633 -0.0048413384
0000f0 fe 6d f4 bb e7 f8 6c 3c 52 42 85 3c 90 73 56 3e
       -0.007459401 0.01446364 0.016266976 0.20942521
000100 ed c3 20 3c cd 8c 18 3e dd 14 d9 bb 3a 6a 7b be
       0.009812337 0.14897461 -0.0066248016 -0.24552241
000110 d2 8d 50 bd 59 b8 8e bb dd ec e6 bd 6f 5e 4e bb
       -0.0509165 -0.004355472 -0.11275647 -0.0031489392
000120 3a 03 21 3e f3 a8 0c 3d b4 14 d4 bd 6f 04 4e 3c
       0.15723887 0.03434081 -0.10355511 0.012574299
000130 93 0a ad 3c 92 8b 3f 3c b7 27 11 bd e2 ce 43 3c
       0.021123206 0.011690991 -0.035438266 0.01195118
000140 8d d0 02 bc 7b 97 19 3c ee 6e 61 be e9 4d 08 be
       -0.007984293 0.009374495 -0.22014973 -0.1331097
000150 f7 21 25 3c 59 eb 98 bc 3a 83 28 bd 60 43 3c bb
       0.010078899 -0.01866691 -0.041140772 -0.0028726682
000160 26 0c 27 be ab 1a 6e be c5 b6 16 3c 71 30 99 bc
       -0.16313228 -0.2325236 0.009198849 -0.018699856
000170 e2 67 7b 3b ce 3b 2f bc 9e cc 9d bb 4c 9b 2c 3c
       0.003836148 -0.010695411 -0.004815652 0.010535073
000180 25 00 bf ba fc fb b3 3b 33 17 5a 3d 72 62 2a bd
       -0.0014572187 0.0054926854 0.05324478 -0.04159779
000190 80 ab 08 bc 21 1a eb ba 2a 3d 9f bb 75 4c c3 bb
       -0.00834167 -0.0017936864 -0.0048595862 -0.005960042
0001a0 1e 85 55 3b 11 78 e8 3a 94 1f f5 bc 2d 87 5e be
       0.0032580565 0.0017735978 -0.029922284 -0.21731253
0001b0 5a 29 19 3c 09 f5 c1 bb f3 2d 8a bd a7 25 0b 3d
       0.009348238 -0.005919103 -0.06747045 0.033971455
0001c0 d4 01 35 3c e5 ff a6 bb 0d da 37 3c 73 f4 fa 3a
       0.011047799 -0.005096423 0.011221421 0.0019146338
0001d0 11 6a 0f bd db a8 36 3c c4 6c 27 bd fc 97 ab bb
       -0.035013262 0.011148657 -0.04087521 -0.005236624
0001e0 ab 83 75 3b e8 af 82 bd 9d 54 19 bd 3a 12 a9 bc
       0.0037462513 -0.06381208 -0.03743421 -0.020638574
0001f0 04 81 99 bb 2f 0b 74 bb 03 70 8a bb 44 e6 0b bd
       -0.0046845693 -0.0037238111 -0.0042247786 -0.034155145
000200 cb 80 b8 b9 11 5a 7d 3c 8a 6a ab 3c 8f 60 f8 bc
       -0.00035191173 0.015463368 0.020924825 -0.03031948
000210 70 f0 34 3c ad 61 8f 3b 26 51 87 bb 94 d3 15 bd
       0.011043653 0.0043756575 -0.0041295467 -0.03657873
000220 7f 26 42 3c 93 e9 1f bd af 93 c4 bb c8 f4 85 be
       0.0118499985 -0.039041113 -0.0059990506 -0.26163316
000230 05 99 af bb 22 19 85 b9 65 07 0b 3b c9 9c a7 3a
       -0.0053588175 -0.00025386462 0.0021214124 0.0012787814
000240 35 42 2b 3c 41 a5 87 be b3 38 86 3c 49 9c 0a bd
       0.010452797 -0.26493266 0.016384458 -0.03384045
000250 a0 20 1f bc 5a 5a 26 3c 63 15 3c bd e3 18 49 be
       -0.009712368 0.010153377 -0.045918833 -0.196384
000260 03 71 34 3e 76 55 0a 39 c0 34 9e 3c 79 e5 36 3c
       0.17621236 0.00013192542 0.019312263 0.011163109
000270 d6 d1 92 bb 0b a9 5b 3c bd 92 45 3c 59 31 52 3c
       -0.004480581 0.013407002 0.012058911 0.012829148
000280 26 55 63 3c 89 22 01 be 9d 7a 7e be fa 72 ba bb
       0.013875281 -0.1261083 -0.24851461 -0.005689976
000290 5f c5 c8 bb ba e6 37 3c 0d 90 1a bd d3 14 0b 3d
       -0.006127044 0.011224443 -0.037735034 0.033955406
0002a0 9d 86 4d 3c e1 b5 57 bd 54 40 7a bd b4 70 39 be
       0.012544301 -0.052663688 -0.061096504 -0.18109399
0002b0 3a 8d fb bd 90 cb d7 3b 03 f6 b9 3c d5 e3 03 3d
       -0.12282796 0.006585546 0.022700315 0.0321997
0002c0 44 20 ac bb 22 c1 a0 bb 32 9f 82 bc f9 5d b2 bb
       -0.00525287 -0.0049058357 -0.01594505 -0.0054433313
0002d0 66 60 01 bc 99 ff 1f 3c dd 57 51 bc 65 24 5e be
       -0.007896518 0.009765529 -0.012777296 -0.21693571
0002e0 27 59 9b bc 2b dd a9 bb 95 e2 40 3c cf 8f ad bc
       -0.01896341 -0.005183836 0.011772771 -0.021186737
0002f0 36 91 23 be ed 0e 0a be 4a 68 9d bc 95 f1 2e bd
       -0.15973362 -0.13482256 -0.019214768 -0.04271086
000300 43 05 ce bd a3 2a 81 bb 3a 2d 99 bd db 80 6d be
       -0.10059597 -0.0039418503 -0.074793294 -0.23193686
000310 ad 1d 09 3e b5 3d 88 bc aa 67 2d 3b 5d e9 58 be
       0.13390227 -0.016630987 0.0026459494 -0.21182771
000320 2d f9 4c bd c8 79 25 bb b7 00 8a be ce 4c 12 3b
       -0.05004232 -0.002524959 -0.2695367 0.0022323611
000330 c2 07 b0 bb fa 73 2e 3c 7d 94 b9 39 e3 51 33 3c
       -0.0053720186 0.010647768 0.00035396582 0.010944816
000340 31 d4 12 3e 06 fa b7 bb cb 2e 82 bc 3c ad ff bc
       0.14338757 -0.005614522 -0.015891453 -0.031210534
000350 c8 3f c3 bc fd 30 4b b9 66 34 73 bc 8a 07 75 be
       -0.023834124 -0.00019377838 -0.014844036 -0.23928657
000360 cd 3e 63 3b e7 d6 33 3c 19 69 45 3c b6 7c 63 3c
       0.0034674883 0.01097653 0.012048983 0.013884714
000370 e2 06 a0 be 86 81 21 be 4a 45 ab bd cb 3c 0f 3c
       -0.3125525 -0.15772066 -0.08362825 0.0087425215
000380 ea 36 01 bc bb 64 f1 3b 85 18 5c bb a6 63 38 3c
       -0.007886628 0.0073667443 -0.003358395 0.011254227
000390 f2 19 22 be d4 c3 96 be d2 9d 90 3b 49 a1 5e 3c
       -0.1583021 -0.2944628 0.004413345 0.013588258
0003a0 40 22 15 3c fc 5d ce bc bf 34 0b bd 8b ae 44 3c
       0.009102404 -0.0251913 -0.03398585 0.012004505
0003b0 16 7d 91 bb 87 b1 78 3e 33 9a 44 3c db 5a 1d 3c
       -0.0044399602 0.24286471 0.011999655 0.009604181
0003c0 d4 0e 57 3c 6c 0d d6 bd bf 7d 72 3a be f2 eb 3b
       0.013126094 -0.10451779 0.0009250305 0.007200568
0003d0 05 e2 1e 3c 85 ae df bd 98 f1 2d 3c 27 d6 5c be
       0.009697442 -0.10921959 0.0106166825 -0.21566068
0003e0 be a4 38 3c 13 2f 8d bd e0 68 42 3c 61 35 de bb
       0.011269746 -0.06893744 0.011865824 -0.0067812656
0003f0 7f 60 5f 3c 0f 6e a2 3c ec 2f 1e 3c ba 19 d2 3b
       0.013633846 0.01982787 0.00965498 0.0064117583
