checkpoint_actor.pth (torch_old, 580451 bytes, 10 tensors)

normalizer.weight f4 [24]
1.0105729 0.41678408 0.78710103 0.7960378 0.6791702 0.48169336 0.289059 0.21035166
0.9356877 1.1318126 0.3579263 0.43027905 0.47645035 0.28288043 0.5674017 0.23598984
0.71936065 0.1771054 0.8826146 0.6484309 0.74683475 0.6775701 0.7048653 0.4764881
00000000: 745a 813f b964 d53e 747f 493f 22c9 4b3f
00000010: 19de 2d3f 83a0 f63e 8bff 933e 6d66 573e
00000020: 3b89 6f3f 3cdf 903f 1e42 b73e 894d dc3e
00000030: 4df1 f33e b4d5 903e 3d41 113f 52a7 713e
00000040: 0528 383f 1e5b 353e 08f3 613f 91ff 253f
00000050: 9030 3f3f 3c75 2d3f 0d72 343f 40f6 f33e

normalizer.bias f4 [24]
-0.2071647 -0.042962503 -0.07262621 -0.051935773 0.056095485 -0.035666514 -0.11233031 -0.10721888
-0.07571174 -0.017083675 -0.015826046 -0.03345323 0.053580925 -0.06763665 0.01422386 -0.0019871462
-0.017199144 0.0751893 -0.12300226 -0.13412584 -0.0048831324 -0.033638015 -0.16809152 -0.15697724
00000000: fc22 54be 73f9 2fbd 0dbd 94bd 9bba 54bd
00000010: 61c4 653d 0d17 12bd 6f0d e6bd 9295 dbbd
00000020: c20e 9bbd 10f3 8bbc a0a5 81bc 4106 09bd
00000030: ac77 5b3d 1585 8abd 310b 693c c83a 02bb
00000040: 38e5 8cbc d9fc 993d 9ce8 fbbd 4958 09be
00000050: af02 a0bb 04c8 09bd 2f20 2cbe a4be 20be

normalizer.running_mean f4 [24]
-7.4547315 -0.7610112 4.157228 -0.14640395 0.01598901 4.1936474 4.157228 -0.14640395
-7.4864407 -0.7587502 4.2902 -0.15139094 0.015869286 4.1962857 4.2902 -0.15139094
-7.5296407 -0.757032 4.115631 -0.17674911 0.015486392 4.192393 4.115631 -0.17674911
00000000: 298d eec0 a1d1 42bf 0308 8540 ebea 15be
00000010: 62fb 823c 5c32 8640 0308 8540 ebea 15be
00000020: ec90 efc0 743d 42bf 5249 8940 3a06 1bbe
00000030: 4e00 823c f947 8640 5249 8940 3a06 1bbe
00000040: d1f2 f0c0 d9cc 41bf 40b3 8340 b8fd 34be
00000050: a3ba 7d3c 1528 8640 40b3 8340 b8fd 34be

normalizer.running_var f4 [24]
15.683382 1.1597861 483.47656 14.868348 27.349432 1.9995943 483.47656 14.868348
15.550377 1.163203 480.54562 14.86319 27.708351 1.9639872 480.54562 14.86319
15.33102 1.1632539 484.1327 15.117035 28.128479 1.9593085 484.1327 15.117035
00000000: 22ef 7a41 df73 943f 00bd f143 c1e4 6d41
00000010: a3cb da41 b5f2 ff3f 00bd f143 c1e4 6d41
00000020: 58ce 7841 d6e3 943f d745 f043 a0cf 6d41
00000030: b4aa dd41 ef63 fb3f d745 f043 a0cf 6d41
00000040: dc4b 7541 81e5 943f fc10 f243 60df 7141
00000050: 2007 e141 9fca fa3f fc10 f243 60df 7141

fc1.weight f4 [512, 24]
-0.088186316 -0.15040743 -0.022062082 -0.037328057 -0.10702671 -0.060203798 0.011558558 -0.039416302
-0.03365873 -0.1194162 -0.040151905 0.0029801084 -0.09352244 0.08053231 -0.028109094 0.07657564
0.014195087 -0.10316572 -0.115861274 0.07935632 -0.20017655 0.13543831 -0.121174276 0.06224755
-0.015415294 0.004606908 0.12310831 -0.090064965 -0.1154258 0.18468836 0.14032044 -0.12128937
-0.009307832 -0.0067769457 -0.0013954564 -0.072357334 0.047170144 0.032562852 -0.01873249 -0.009431183
0.08008496 -0.03635508 0.145948 -0.014377626 0.13832846 -0.0701684 0.15906873 0.07213023
0.032817848 -0.06550035 0.044019535 0.014809992 0.068755336 0.12982725 -0.004904896 -0.03857441
0.031310674 -0.048915464 0.0116756065 0.036979545 0.013780598 0.19422247 0.004483694 0.03895571
0.09103152 0.0070245326 0.106137834 0.07247239 0.07824104 0.2033458 0.102976575 0.07667347
0.058575563 0.029794062 0.016220411 0.011187081 0.046500433 0.1510724 -0.034154575 0.04422044
0.006521126 -0.031209085 0.03634751 -0.06530498 -0.22334167 0.22442418 0.07339593 -0.09416297
-0.06466813 -0.021812823 -0.0010822947 0.06543398 -0.2579636 0.21144365 0.03447393 0.018102331
0.011959514 -0.024144553 0.030739643 -0.022801401 0.036810495 0.16224456 0.061589107 -0.048225563
0.08550463 -0.023509286 -0.02323724 0.014357783 0.09403302 0.19046749 0.010832356 -0.015955608
0.086552784 0.014745941 -0.01017949 0.16415837 0.1189938 0.21054697 0.04402364 0.114550985
0.058094274 0.011522116 0.005344396 0.041385885 -0.22822046 -0.042519685 0.035540078 0.085597545
0.0712293 0.09813468 -0.038809177 0.1126377 -0.16151431 0.005995352 -0.015051339 0.072627656
0.051445227 0.09262298 0.028973555 0.0634158 -0.0112738935 -0.011654735 0.008542244 0.0843724
0.06617661 -0.04285121 0.039310824 -0.08337254 0.09007629 0.27364075 0.037661087 -0.016471073
-0.0018233198 -0.005784592 0.06138826 -0.05608984 0.21586518 0.20584716 0.08389379 -0.067777775
-0.018291794 -0.1395689 -0.07114498 -0.074084714 0.35621014 0.061026484 -0.03578561 -0.01201799
0.06407087 -0.021318166 0.037821777 -0.12526585 0.18061276 0.02340796 0.106690474 -0.15608792
0.07770058 0.052830637 -0.0663111 -0.18512057 0.13709988 -0.07662085 -0.12333676 -0.14335778
0.0097723305 0.030972434 -0.05872816 -0.058451716 0.11374521 0.07828945 -0.011081462 -0.120881505
-0.07371429 -0.14880125 -0.023429142 -0.05742945 0.057190053 -0.031702396 -0.0011106643 -0.05737567
0.029901318 -0.20418905 -0.03309013 -0.09942679 0.15435608 -0.08266654 -0.07321555 -0.1299615
-0.034362108 -0.2349836 -0.09181267 -0.092974335 0.29563084 -0.07684452 -0.1089549 -0.148543
-0.07465373 -0.18360405 -0.041665576 0.05472406 -0.113945454 -0.07253041 -0.073342666 -0.015909124
-0.026162393 -0.0848391 0.046963766 0.06728947 0.02584624 -0.111057855 0.06202307 0.08121882
0.091018066 -0.042963915 0.17834167 0.058025695 -0.061345894 -0.07131396 0.15748219 0.1091202
-0.023231354 0.037518285 0.049598258 -0.017334849 0.23335806 0.042774513 0.025173062 0.022139117
-0.05164243 -0.020774093 -0.054377235 -0.007747646 0.51356643 0.10706223 -0.015000275 0.037751418
00000000: 079b b4bd 6804 1abe 8abb b4bc 4ee5 18bd
00000010: d230 dbbd 4298 76bd 1b60 3d3c fd72 21bd
00000020: bddd 09bd 7b90 f4bd 5376 24bd ec4d 433b
00000030: b188 bfbd 20ee a43d 0b45 e6bc b0d3 9c3d
00000040: 8392 683c 8d48 d3bd ad48 edbd 9185 a23d
00000050: 15fb 4cbe 57b0 0a3e 382a f8bd 49f7 7e3d
00000060: 6e90 7cbc 8cf5 963b 3620 fc3d fb73 b8bd
00000070: 5d64 ecbd f21e 3d3e 29b0 0f3e 9066 f8bd
00000080: e17f 18bc 2411 debb bfe7 b6ba 1530 94bd
00000090: 7b35 413d a060 053d e174 99bc 4085 1abc
000000a0: 9503 a43d 10e9 14bd 6473 153e 2290 6bbc
000000b0: faa5 0d3e 73b4 8fbd eae2 223e 04b9 933d
000000c0: 026c 063d 0c25 86bd d44d 343d 9ca5 723c
000000d0: 99cf 8c3d 6ff1 043e 40b9 a0bb 3300 1ebd
000000e0: 9f3f 003d 955b 48bd 0b4b 3f3c dd77 173d
000000f0: 04c8 613c 41e2 463e f4eb 923b 0690 1f3d
00000100: bc6e ba3d 0d2e e63b cb5e d93d 686c 943d
00000110: d73c a03d e239 503e 62e5 d23d fb06 9d3d
00000120: eeec 6f3d ad12 f43c abe0 843c 054a 373c
00000130: 3d77 3e3d b9b2 1a3e abe5 0bbd 7e20 353d
00000140: 2baf d53b 32aa ffbc 20e1 143d 9ebe 85bd
00000150: aeb3 64be 74cf 653e 9b50 963d 84d8 c0bd
00000160: b970 84bd ceb0 b2bc c9db 8dba 4002 863d
00000170: ce13 84be af84 583e 8934 0d3d 574b 943c
00000180: d6f1 433c ccca c5bc b4d1 fb3c 01ca babc
00000190: 9ac6 163d 7023 263e dc44 7c3d 2b88 45bd
000001a0: 0d1d af3d 8c96 c0bc 065c bebc e83c 6b3c
000001b0: 6294 c03d e909 433e 327a 313c 56b5 82bc
000001c0: 9642 b13d f698 713c e0c7 26bc 2219 283e
000001d0: 05b3 f33d a099 573e 2252 343d b599 ea3d
000001e0: 43f4 6d3d 42c7 3c3c 0b20 af3b 3f84 293d
000001f0: a0b2 69be 1f29 2ebd 7992 113d c44d af3d
00000200: abe0 913d d6fa c83d 5ff6 1ebd 98ae e63d
00000210: 0264 25be a874 c43b e499 76bc cfbd 943d
00000220: 3bb8 523d 1eb1 bd3d f359 ed3c 25e0 813d
00000230: 23b6 38bc 80f3 3ebc c5f4 0b3c 70cb ac3d
00000240: 9a87 873d c084 2fbd 6304 213d 39bf aabd
00000250: eb79 b83d a41a 8c3e 8342 1a3d 58ee 86bc
00000260: 76fc eeba ad8c bdbb 4272 7b3d 76be 65bd
00000270: c30b 5d3e 99c9 523e 82d0 ab3d 13cf 8abd
00000280: acd8 95bc 26eb 0ebe 76b4 91bd bab9 97bd
00000290: 2d61 b63e e8f6 793d ef93 12bd 1be7 44bc
000002a0: 9737 833d 6fa3 aebc 02eb 1a3d b145 00be
000002b0: 8df2 383e 0dc2 bf3c 8980 da3d 83d5 1fbe
000002c0: 7b21 9f3d f064 583d 1dce 87bd 3f90 3dbe
000002d0: e963 0c3e 64eb 9cbd fc97 fcbd 62cc 12be
000002e0: 201c 203c e7b9 fd3c f08c 70bd 116b 6fbd
000002f0: 40f3 e83d 3856 a03d 058f 35bc b990 f7bd
00000300: 85f7 96bd 5b5f 18be 79ee bfbc 253b 6bbd
00000310: 1e40 6a3d 5fda 01bd b693 91ba c002 6bbd
00000320: 9cf3 f43c ef16 51be 8489 07bd 46a0 cbbd
00000330: 850f 1e3e 134d a9bd 09f2 95bd a114 05be
00000340: 48bf 0cbd 8a9f 70be 4808 bcbd 5469 bebd
00000350: ed5c 973e a960 9dbd bf23 dfbd a81b 18be
00000360: 0ee4 98bd b302 3cbe 86a9 2abd 5626 603d
00000370: 3c5c e9bd d38a 94bd ae34 96bd da53 82bc
00000380: 8452 d6bc 1fc0 adbd 145d 403d 10cf 893d
00000390: 7ebb d33c 4d72 e3bd e70b 7e3d 0d56 a63d
000003a0: ae67 ba3d eefa 2fbd 339f 363e 5aac 6d3d
000003b0: d545 7bbd 0e0d 92bd 0343 213e 697a df3d
000003c0: ae4f bebc c6ac 193d 8b27 4b3d d001 8ebc
000003d0: 6af5 6e3e 5434 2f3d bd37 ce3c 185d b53c
000003e0: 0387 53bd 6e2e aabc aaba 5ebd f7df fdbb
000003f0: 1779 033f 7143 db3d b7c3 75bc 3ba1 1a3d

fc1.bias f4 [512]
0.04237857 0.12383257 -0.072276905 -0.11710143 -0.12221112 0.03995721 -0.08196995 -0.04478636
-0.027661756 0.07464014 0.07990425 0.09537111 -0.084131934 -0.18821798 0.20695305 -0.041043684
0.04730029 -0.058459748 0.13416748 0.056411024 0.09454022 0.036765546 -0.036213405 -0.06149916
-0.089732885 0.056988057 0.16470556 0.06897785 -0.1996411 -0.11393907 -0.03261238 0.06922951
0.003167888 0.056237243 0.084233776 -0.093885675 0.06287496 -0.00815477 0.1700583 0.11448864
-0.24844442 0.008015912 -0.0002115162 -0.13875397 0.1331297 0.02291043 0.026717082 -0.06406401
0.111159876 0.16873169 -0.009449201 -0.039153244 0.16565545 0.039712068 0.22673437 -0.10993666
-0.009714882 -0.13275278 -0.06588671 -0.18790472 0.0014806261 0.04546378 -0.005642957 0.09999388
-0.14763817 0.079882905 0.16599728 0.07221001 0.10234642 -0.12564978 -0.04488376 0.053075787
-0.19342114 0.04533491 0.042420898 0.08877505 0.21712737 -0.035070162 -0.046440043 0.003852694
0.094788924 -0.10050746 -0.0033626799 0.19608139 -0.16840182 0.1480299 -0.0055275885 -0.15115963
-0.11967389 0.12371725 0.05074538 0.12999651 0.04853065 0.10436646 -0.01241135 -0.058129992
0.21640272 -0.007121566 0.14948303 -0.047438722 -0.030026313 -0.12322897 0.15370162 0.0088916
0.062929295 -0.06136092 0.056658074 0.18872085 0.010682711 -0.053437926 0.053968545 -0.009759592
0.18846408 0.129392 -0.06067399 -0.19467808 0.00815514 -0.13969634 0.078420244 -0.14559373
0.03519076 0.041463368 0.011372238 0.021276902 0.08615342 0.17634307 -0.0031959892 -0.0029095584
-0.21520649 -0.09394424 0.055587225 0.15455356 0.13460156 0.04616637 -0.026904564 -0.07872279
-0.03584882 -0.15117553 -0.02342975 -0.097412094 -0.22374462 0.03992299 -0.104730606 0.21372719
0.028443176 0.17729796 0.1608751 -0.08012352 0.05603619 0.0866978 0.11332769 -0.012819721
0.052884497 0.033445958 0.0014912746 -0.049264397 0.029080383 -0.04477934 0.011120694 -0.15940674
-0.09111357 -0.01876965 -0.12046661 -0.16706945 0.13191791 -0.03357678 -0.18975109 -0.0046327803
-0.0122663025 -0.16265446 0.011799568 -0.018093944 -0.21993189 0.05357545 0.0038663293 -0.03503594
-0.08419365 0.026438018 0.1325445 -0.007420979 0.1585811 -0.05750136 -0.13820814 0.21771286
-0.19005707 0.18074523 0.09380472 0.043642435 0.058834214 -0.024988154 0.11170641 0.12463873
-0.07588738 0.20450056 -0.048212975 -0.13681066 -0.1707943 0.2404891 0.15466245 0.2773324
0.19000481 -0.18715236 -0.01642926 0.07751749 0.14891444 0.035734635 0.16435629 -0.024461865
-0.0015733651 0.15541503 -0.08245078 0.1312451 0.022621697 0.09579685 -0.07155712 -0.06492951
0.13229854 0.21397369 0.037596248 0.26681608 0.07775295 0.14171118 -0.026768329 0.14250119
-0.20653248 0.24896793 0.07617897 0.14528222 0.048070103 0.17057285 0.05920477 0.029148936
0.05139384 0.18929507 0.15528202 -0.10229659 -0.06805442 0.09614 -0.04684243 0.05634044
0.1996106 0.15669411 -0.148044 -0.17008239 -0.1858601 -0.08998415 -0.16734828 0.080911554
-0.016556578 0.077193685 -0.00038930422 -0.038611967 -0.1384356 0.11961299 -0.13202696 0.022994889
00000000: 2795 2d3d ee9b fd3d ea05 94bd e0d2 efbd
00000010: d349 fabd 2caa 233d dcdf a7bd e771 37bd
00000020: e89a e2bc eedc 983d d7a4 a33d ee51 c33d
00000030: 5d4d acbd 37bc 40be 80eb 533e 6c1d 28bd
00000040: f3bd 413d 7d73 6fbd 3363 093e 3f0f 673d
00000050: 4e9e c13d 7897 163d 8254 14bd 8be6 7bbd
00000060: e0c5 b7bd 4f6c 693d 93a8 283e 4244 8d3d
00000070: b76e 4cbe e358 e9bd 8f94 05bd 34c8 8d3d
00000080: 579c 4f3b 0659 663d c282 ac3d 2247 c0bd
00000090: 96c4 803d 969b 05bc c323 2e3e 0579 ea3d
000000a0: 3768 7ebe 2c55 033c 73ca 5db9 8515 0ebe
000000b0: 2753 083e a7ae bb3c c8dd da3c fe33 83bd
000000c0: caa7 e33d 00c8 2c3e d2d0 1abc 275f 20bd
000000d0: 95a1 293e 1fa9 223d 0e2d 683e 7926 e1bd
000000e0: 2b2b 1fbc 58f0 07be 9def 86bd 186a 40be
000000f0: 9111 c23a 3b38 3a3d 8ee8 b8bb 97c9 cc3d
00000100: 762e 17be a699 a33d 31fb 293e d7e2 933d
00000110: 009b d13d 56aa 00be 09d8 37bd ff65 593d
00000120: 3110 46be 19b1 393d 89c1 2d3d b2cf b53d
00000130: a356 5e3e bba5 0fbd ea37 3ebd 7b7d 7c3b
00000140: b220 c23d dbd6 cdbd 6860 5cbb 8fc9 483e
00000150: 8771 2cbe 2695 173e c620 b5bb 97c9 1abe
00000160: 9617 f5bd 785f fd3d 63da 4f3d ce1d 053e
00000170: 13c8 463d 15be d53d fa58 4bbc b719 6ebd
00000180: ad98 5d3e 075c e9bb 1412 193e 1b4f 42bd
00000190: bef9 f5bc 785f fcbd f563 1d3e 13ae 113c
000001a0: 13e1 803d 9755 7bbd 4c12 683d 0a40 413e
000001b0: 8a06 2f3c bae1 5abd 1f0e 5d3d b2e6 1fbc
000001c0: bafc 403e 567f 043e 4a85 78bd b159 47be
000001d0: 239d 053c 8f0c 0fbe cb9a a03d 8616 15be
000001e0: 3024 103d 7ed5 293d a052 3a3c e64c ae3c
000001f0: 3471 b03d 4793 343e cd73 51bb 4aae 3ebb
00000200: 175f 5cbe d665 c0bd 6eaf 633d 4a43 1e3e
00000210: fed4 093e f318 3d3d f666 dcbc 6a39 a1bd
00000220: 36d6 12bd c2cd 1abe bfef bfbc fe7f c7bd
00000230: 4f1d 65be 4a86 233d 007d d6bd 4ddb 5a3e
00000240: aa01 e93c 998d 353e 71bc 243e cd17 a4bd
00000250: 3486 653d 9e8e b13d 5918 e83d cf09 52bc
00000260: 6a9d 583d a1fe 083d df76 c33a 77c9 49bd
00000270: fc39 ee3c 8b6a 37bd 9233 363c 853b 23be
00000280: c099 babd cfc2 99bc 33b7 f6bd 4114 2bbe
00000290: 7d15 073e ce87 09bd 1c4e 42be 94ce 97bb
000002a0: 9af8 48bc e48e 26be fa52 413c c039 94bc
000002b0: d335 61be ee71 5b3d 3e62 7d3b d981 0fbd
000002c0: b86d acbd 8b94 d83c bfb9 073e af2b f3bb
000002d0: 1563 223e 8c86 6bbd 6f86 0dbe 1ff0 5e3e
000002e0: 529e 42be 4715 393e b01c c03d 69c2 323d
000002f0: 25fc 703d f5b3 ccbc 55c6 e43d 9742 ff3d
00000300: d86a 9bbd 9868 513e f87a 45bd 1818 0cbe
00000310: b3e4 2ebe c642 763e d55f 1e3e 83fe 8d3e
00000320: 9f90 423e dea4 3fbe a896 86bc 7dc1 9e3d
00000330: 077d 183e 7b5e 123d 044d 283e 4064 c8bc
00000340: 5f39 ceba 1e25 1f3e f4db a8bd 1e65 063e
00000350: 2351 b93c 2431 c43d 8a8c 92bd c3f9 84bd
00000360: 4579 073e eb1b 5b3e 86fe 193d 1e9c 883e
00000370: f03c 9f3d bc1c 113e 4149 dbbc d5eb 113e
00000380: 407d 53be 73f1 7e3e b803 9c3d ddc4 143e
00000390: 28e5 443d a6aa 2e3e b380 723d c0c9 ee3c
000003a0: 5982 523d 91d6 413e 4002 1f3e e080 d1bd
000003b0: 1e60 8bbd 0ce5 c43d d9dd 3fbd 3cc5 663d
000003c0: b966 4c3e 6c74 203e d998 17be 142a 2ebe
000003d0: 1c52 3ebe 9c49 b8bd 595d 2bbe f5b4 a53d
000003e0: a9a1 87bc b917 9e3d 871b ccb9 9527 1ebd
000003f0: 10c2 0dbe a8f7 f43d 1332 07be c75f bc3c

fc2.weight f4 [256, 512]
-0.0054813595 0.003944163 -0.008166012 0.010802853 0.03730849 -0.04563712 -0.023845 -0.13287112
-0.2848487 0.070883214 -0.08638456 -0.028248005 -0.07726479 0.015848538 0.058568902 -0.052463003
0.029651837 0.027030604 0.024731347 0.006095275 0.054078467 0.030742608 -0.34855628 -0.22435018
-0.082770005 -0.10938661 0.07653047 0.039005596 0.057550665 -0.07357156 -0.13963602 0.0076921773
-0.041219335 -0.042117104 -0.041772857 0.04353666 -0.0035645128 0.14199407 0.021094728 0.1707627
-0.070548594 0.04912347 -0.1632692 -0.034079585 0.097246155 -0.0593583 -0.055951923 0.071925916
0.104683734 -0.033240575 -0.07004566 -0.035479087 -0.074331865 -0.11702916 -0.008760078 0.013254146
-0.05714075 0.11431895 0.06191692 -0.03818476 -0.13324615 0.06076092 0.021557447 0.053313132
0.04453287 -0.009448398 0.0637769 0.044142738 0.03645075 0.059467874 -0.039224423 -0.040284406
0.026994312 -0.011879915 -0.0046156 -0.042775422 0.053545725 0.018165061 -0.037076104 -0.08038111
0.09299377 -0.07556923 -0.05439919 0.006067167 -0.013850769 0.05391742 -0.13862851 0.05055418
-0.104391314 0.09494341 0.050791133 0.06939001 0.014434481 -0.0037572705 -0.01839789 0.05111241
0.050184067 0.037079807 0.095495105 -0.07890855 -0.09569177 -0.23938471 0.046378132 0.038753532
-0.08410597 -0.008297376 -0.05159111 -0.009971823 0.05363774 0.055109248 -0.055178203 0.074098326
0.10545653 -0.11599087 -0.1282856 0.00462339 0.067434445 -0.029351221 -0.13791485 0.041307
-0.02193469 -0.0534542 -0.11495237 0.043162134 0.02145684 -0.029483343 -0.052740768 0.0088399565
0.07132358 -0.14334127 0.071395785 0.014625954 0.11367543 0.056861173 -0.061153673 -0.141688
-0.025515031 -0.05336062 -0.050217576 -0.0006082339 0.03573921 0.06988001 -0.03063598 0.0094088875
-0.026049206 0.094477504 0.075823195 -0.040625855 -0.105099514 -0.27247146 -0.022023933 -0.0031516613
-0.0017805974 -0.090095565 0.2050708 -0.0030292005 -0.10750375 0.033616155 -0.02872736 0.00013269366
-0.27671528 -0.008710176 -0.07744714 -0.006683592 0.012313775 -0.038660876 0.045925215 -0.0429348
0.18497995 -0.006842993 -0.10376867 0.033192195 0.22265562 0.014059863 -0.033438604 -0.021555271
-0.040693466 0.053054273 -0.06847754 -0.17701177 -0.021942912 -0.12377941 0.051131405 -0.0155155575
-0.002252384 0.041948184 0.00381092 -0.06921514 0.010942933 0.06834003 0.023780493 0.11196146
-0.06334047 0.12738349 0.0414903 -0.12537836 0.052371964 0.0852334 0.088964745 -0.033426106
0.09690863 -0.007955263 -0.059876088 0.019143082 0.14146121 0.063595116 0.008247954 0.09001997
0.018559122 0.09285377 -0.027626859 0.022870682 0.015114808 0.026699064 -0.13636704 0.12495374
0.13992918 0.09241379 -0.033750873 0.088824354 -0.04049786 0.0074551543 -0.3810076 0.03752351
-0.017709762 0.08264088 0.06904618 -0.09151117 -0.09144136 -0.008436254 0.031188866 0.02789097
-0.103287265 -0.076396756 -0.029345341 0.002034536 0.13561216 0.013348286 -0.040267218 -0.08969659
0.059893545 0.116287015 0.18895805 0.09337943 0.059690297 -0.06449296 0.05472646 -0.23455346
0.063733704 0.026944159 0.07659813 -0.13054731 -0.07214703 0.01945089 0.10863883 -0.13447714
00000000: fa9c b3bb 0a3e 813b bdca 05bc 73fe 303c
00000010: cad0 183d fded 3abd 9756 c3bc 5e0f 08be
00000020: b0d7 91be 382b 913d 63ea b0bd 5c68 e7bc
00000030: 013d 9ebd cbd4 813c f2e5 6f3d 72e3 56bd
00000040: 69e8 f23c 496f dd3c 6599 ca3c dfba c73b
00000050: 6281 5d3d ecd7 fb3c f875 b2be 0ebc 65be
00000060: 5283 a9bd 1606 e0bd 02bc 9c3d 55c4 1f3d
00000070: 3fba 6b3d b0ac 96bd bffc 0ebe a90e fc3b
00000080: 9bd5 28bd fc82 2cbd 041a 2bbd 7f53 323d
00000090: 9a9a 69bb e566 113e dace ac3c 6bdc 2e3e
000000a0: c87b 90bd b135 493d 0b30 27be 0997 0bbd
000000b0: fe28 c73d b021 73bd d82d 65bd e54d 933d
000000c0: 6d64 d63d 4527 08bd 1974 8fbd 8552 11bd
000000d0: 4e3b 98bd fcac efbd 6e86 0fbc eb27 593c
000000e0: 6b0c 6abd 0e20 ea3d 999c 7d3d 9f67 1cbd
000000f0: ae71 08be 71e0 783d 3e99 b03c df5e 5a3d
00000100: 1968 363d 74cd 1abc 779d 823d 04cf 343d
00000110: 624d 153d 9694 733d caa9 20bd 4301 25bd
00000120: 2d23 dd3c faa3 42bc 763e 97bb 4835 2fbd
00000130: c352 5b3d e5ce 943c 1ddd 17bd da9e a4bd
00000140: 8573 be3d 0ac4 9abd afd1 5ebd 16cf c63b
00000150: 56ee 62bc 83d8 5c3d a2f4 0dbe e611 4f3d
00000160: 1dcb d5bd b171 c23d 5d0a 503d 591c 8e3d
00000170: 9a7e 6c3c 8a3c 76bb 2cb7 96bc 3f5b 513d
00000180: cf8d 4d3d ffe0 173d f092 c33d ce9a a1bd
00000190: 0cfa c3bd 4421 75be fff6 3d3d 06bc 1e3d
000001a0: c03f acbd b8f1 07bc 3351 53bd db60 23bc
000001b0: 3fb3 5b3d 3cba 613d 8a02 62bd ddc0 973d
000001c0: 98f9 d73d 9f8c edbd 4d5d 03be ce7f 973b
000001d0: 121b 8a3d f971 f0bc 8d39 0dbe 8731 293d
000001e0: 61b0 b3bc cbf2 5abd 266c ebbd c7ca 303d
000001f0: 41c6 af3c 0d87 f1bc b406 58bd 77d5 103c
00000200: 1912 923d 0ec8 12be f437 923d b3a1 6f3c
00000210: aace e83d 43e7 683d 467c 7abd a916 11be
00000220: e604 d1bc aa90 5abd f2b0 4dbd e371 1fba
00000230: 4763 123d 401d 8f3d 4ff8 fabc bc27 1a3c
00000240: 2565 d5bc 6c7d c13d 3149 9b3d 4c67 26bd
00000250: 6a3e d7bd 6181 8bbe 896b b4bc 1a8c 4ebb
00000260: ef62 e9ba 0684 b8bd 14fe 513e 8d85 46bb
00000270: ed2a dcbd 18b1 093d a455 ebbc af23 0b39
00000280: a0ad 8dbe 20b5 0ebc 9b9c 9ebd 0902 dbbb
00000290: b7bf 493c de5a 1ebd 141c 3c3d 67dc 2fbd
000002a0: 626b 3d3e 303b e0bb ab84 d4bd 8af4 073d
000002b0: d6ff 633e 575b 663c ebf6 08bd ae94 b0bc
000002c0: 31ae 26bd 704f 593d f43d 8cbd 9342 35be
000002d0: 9fc1 b3bc 0f80 fdbd 2a6f 513d f734 7ebc
000002e0: bc9c 13bb dcd1 2b3d a1c0 793b abc0 8dbd
000002f0: fd49 333c dcf5 8b3d 4fcf c23c 0d4c e53d
00000300: a6b8 81bd d170 023e bcf1 293d 2f63 00be
00000310: fc83 563d d98e ae3d 2633 b63d d0e9 08bd
00000320: 0878 c63d cb56 02bc a140 75bd f4d1 9c3c
00000330: 35db 103e 283e 823d 6d22 073c 645c b83d
00000340: 4d09 983c 1e2a be3d b951 e2bc 4c5b bb3c
00000350: 1aa4 773c ffb7 da3c cda3 0bbe bfe7 ff3d
00000360: 9849 0f3e 7143 bd3d 5b3e 0abd 8be9 b53d
00000370: 16e1 25bd 5e4a f43b 6e13 c3be 41b2 193d
00000380: 1014 91bc 9f3f a93d 1568 8d3d 356a bbbd
00000390: 9c45 bbbd 3738 0abc cb7f ff3c 9b7b e43c
000003a0: 4688 d3bd e775 9cbd a465 f0bc da55 053b
000003b0: eadd 0a3e c5b2 5a3c 3def 24bd d9b2 b7bd
000003c0: ef52 753d e327 ee3d 387e 413e b73d bf3d
000003d0: d07d 743d e314 84bd da28 603d c82e 70be
000003e0: d186 823d ffb9 dc3c 7bdf 9c3d 32ae 05be
000003f0: d2c1 93bd 7957 9f3c 097e de3d 60b4 09be

fc2.bias f4 [256]
-0.010282808 -0.010012938 0.01889186 0.087876886 0.032538593 0.033817444 0.027253391 0.041146886
-0.06544643 -0.04102356 0.02163781 0.059517805 0.080339804 0.03102928 0.0034204642 0.033446603
0.010962432 0.03650832 -0.0064482493 -0.023008963 -0.12756382 0.046078738 0.010203274 0.02382531
-0.0048099067 0.057586987 -0.08318466 0.03317731 -0.056438964 -0.08751103 -0.1345852 0.021128517
0.047784634 0.02025032 0.002090925 -0.08691468 -0.025700908 0.036073714 0.03562786 0.0044675544
0.02298648 0.007471057 -0.07295836 0.082930736 0.014579788 0.0106534185 0.044180933 0.07239185
0.03713219 0.042184133 0.013301919 0.0142836515 0.06320036 0.023233801 0.0026581972 -0.033593904
-0.0016570935 0.0033592675 0.07790785 -0.06993288 0.027591527 0.0548461 0.036019295 0.07848756
0.0701767 -0.028729524 0.03214377 0.019842159 -0.012726122 0.07004878 0.02288468 -0.0009772285
-0.039637804 -0.006023012 0.01688151 0.08741861 -0.033604108 0.06394306 -0.019141523 -0.006670405
-0.02297768 0.04957147 0.07405934 0.041090198 0.006299907 0.018890206 0.024652455 0.028358262
0.05394676 -0.00012163193 0.05060865 -0.0066476725 0.04364012 0.05387775 0.0021578541 0.0736434
0.029667147 0.06457385 0.112103894 -0.028343804 -0.053513072 0.028727997 0.047708735 -0.11959315
-0.0029184953 -0.053039823 0.0010478697 -0.10106018 -0.012077077 0.07941699 0.022688394 0.03622194
0.01168577 -0.03174591 0.008675725 0.022076482 0.0069376808 0.059377886 -0.064882904 -0.00031890342
0.022222469 0.06355057 0.038630065 -0.09469336 -0.0074985484 -0.01885027 0.12424104 0.030778134
-0.02746243 -0.061795402 -0.022472126 0.033551715 -0.02003415 -0.05491738 0.12546109 0.04430631
-0.026100965 0.019896679 0.08172757 0.008022961 0.07604814 0.087283835 0.016702052 -0.042227387
-0.051005617 -0.034118675 0.06913063 0.07735768 0.06800542 -0.032211855 -0.035805225 0.026709154
-0.09118661 0.02404466 -0.027673861 0.07398876 0.05574612 0.050354663 -0.035964265 -0.045528974
0.082561575 -0.008277813 -0.040680446 0.028903373 0.04450046 -0.035402328 0.031381503 0.034451507
-0.10294947 0.01488459 -0.097284615 0.051488165 -0.058605965 -0.018427953 -0.072057374 0.051990993
0.069693826 -0.039409418 -0.0131307505 0.052976735 -0.044914745 -0.06976003 0.11593582 0.0035137404
-0.0409454 -0.03386672 0.051847097 -0.014098339 0.034764327 0.053087052 -0.015097188 -0.078699976
0.022909762 -0.07617381 0.0058574653 -0.049932018 0.017344132 0.0116929505 -0.0075232033 -0.13203344
-0.061791733 0.04964248 -0.08813146 0.0045618014 -0.08187031 0.06061096 0.07174314 0.02135785
-0.012404515 0.083339654 -0.010319436 0.003986627 0.043360278 0.023494234 -0.032181334 0.062472075
-0.013093235 0.07690364 0.015875574 -0.017293742 0.037917938 -0.063294575 -0.0031475103 -0.019837033
0.024144817 -0.08879426 0.0009727659 -0.035118476 0.10414551 0.03690768 0.04232431 0.14941154
0.024908984 0.01101553 -0.024593411 0.05473595 -0.0033909783 0.109455794 -0.029409325 0.050327078
0.028238637 0.0003972571 0.011058951 0.05422492 0.015243613 -0.06784018 0.024251549 0.065667324
0.053552266 -0.07386598 0.023680612 0.047074348 0.023070283 -0.04713408 0.011738184 0.004790179
00000000: 3979 28bc 4e0d 24bc 1ac3 9a3c ccf8 b33d
00000010: 3047 053d 2984 0a3d 8142 df3c a389 283d
00000020: c708 86bd 5208 28bd c741 b13c f1c8 733d
00000030: 3289 a43d 1e31 fe3c de29 603b 4eff 083d
00000040: c69b 333c c089 153d d64b d3bb 4b7d bcbc
00000050: 17a0 02be 0fbd 3c3d a22b 273c 4c2d c33c
00000060: 6c9c 9dbb 55e0 6b3d b85c aabd eee4 073d
00000070: 8b2c 67bd fc38 b3bd b4d0 09be b615 ad3c
00000080: d2b9 433d 00e4 a53c e607 093b 5300 b2bd
00000090: b68a d2bc 08c2 133d 85ee 113d 9064 923b
000000a0: 244e bc3c c5cf f43b 316b 95bd 97d7 a93d
000000b0: 10e0 6e3c ad8b 2e3c 11f7 343d 2e42 943d
000000c0: ec17 183d 45c9 2c3d 4bf0 593c fa05 6a3c
000000d0: 316f 813d d054 be3c 2635 2e3b c399 09bd
000000e0: d532 d9ba 2827 5c3b 278e 9f3d f838 8fbd
000000f0: a007 e23c 4ea6 603d f888 133d 16be a03d
00000100: cdb8 8f3d 2e5a ebbc 30a9 033d 068c a23c
00000110: 3981 50bc bc75 8f3d a778 bb3c 5916 80ba
00000120: 405b 22bd b05c c5bb 184b 8a3c 8708 b33d
00000130: 76a4 09bd 94f4 823d afce 9cbc 6a93 dabb
00000140: b03b bcbc 740b 4b3d 6cac 973d 324e 283d
00000150: 736f ce3b a2bf 9a3c f2f3 c93c 964f e83c
00000160: 47f7 5c3d a514 ffb8 044b 4f3d b8d4 d9bb
00000170: fcbf 323d eaae 5c3d c96a 0d3b 5ad2 963d
00000180: 8408 f33c 4b3f 843d ba96 e53d 4431 e8bc
00000190: 8630 5bbd fa56 eb3c 3c6a 433d 41ed f4bd
000001a0: 3a44 3fbb 4940 59bd ac58 893a a4f8 cebd
000001b0: efde 45bc 60a5 a23d 03dd b93c 755d 143d
000001c0: ac75 3f3c 0008 02bd a124 0e3c bdd9 b43c
000001d0: 7c55 e33b 3a36 733d 54e1 84bd 7e32 a7b9
000001e0: e50b b63c cd26 823d 8f3a 1e3d 98ee c1bd
000001f0: 62b6 f5bb e26b 9abc 1672 fe3d 6d22 fc3c
00000200: e4f8 e0bc 2d1d 7dbd 7717 b8bc 866d 093d
00000210: a81e a4bc 0cf1 60bd df78 003e 897a 353d
00000220: b1d1 d5bc 5cfe a23c c960 a73d bd72 033c
00000230: 21bf 9b3d dec1 b23d bed2 883c a0f6 2cbd
00000240: 44eb 50bd 06c0 0bbd 5c94 8d3d b46d 9e3d
00000250: 6d46 8b3d 94f0 03bd 80a8 12bd 28cd da3c
00000260: 0cc0 babd 4ff9 c43c 4bb4 e2bc 6b87 973d
00000270: 0b56 643d b140 4e3d 444f 13bd 977c 3abd
00000280: 0b16 a93d aa9f 07bc 8aa0 26bd c4c6 ec3c
00000290: 1d46 363d 0802 11bd e489 003d 061d 0d3d
000002a0: 2cd7 d2bd 7fde 733c 283d c7bd 41e5 523d
000002b0: cf0c 70bd 38f6 96bc d192 93bd 82f4 543d
000002c0: a3bb 8e3d c56b 21bd 5c22 57bc 22fe 583d
000002d0: 86f8 37bd 59de 8ebd c26f ed3d c846 663b
000002e0: 5db6 27bd d4b7 0abd 9f5d 543d b8fc 66bc
000002f0: 0a65 0e3d cf71 593d 325a 77bc 742d a1bd
00000300: 41ad bb3c 0401 9cbd fbef bf3b 8485 4cbd
00000310: 4815 8e3c ca93 3f3c 3485 f6bb c633 07be
00000320: 5419 7dbd ea55 4b3d 447e b4bd 2a7b 953b
00000330: 9fab a7bd 3343 783d 11ee 923d a8f6 ae3c
00000340: 4f3c 4bbc fbad aa3d da12 29bc 40a2 823b
00000350: 8c9a 313d fb76 c03c 93d0 03bd b8e2 7f3d
00000360: 0285 56bc a87f 9d3d 7e0d 823c 9bab 8dbc
00000370: d74f 1b3d 96a0 81bd 7646 4ebb 4681 a2bc
00000380: 5acb c53c c4d9 b5bd 3701 7f3a 64d8 0fbd
00000390: 3e4a d53d 822c 173d 415c 2d3d 57ff 183e
000003a0: ed0d cc3c 7b7a 343c 1f78 c9bc ce32 603d
000003b0: 2d3b 5ebb 5c2a e03d d3eb f0bc c423 4e3d
000003c0: b754 e73c f246 d039 9a30 353c f31a 5e3d
000003d0: 59c0 793c cbef 8abd 2fab c63c 977c 863d
000003e0: 9f59 5b3d 0c47 97bd d8fd c13c 08d1 403d
000003f0: e4fd bc3c aa0f 41bd 8351 403c eff6 9c3b

fc3.weight f4 [2, 256]
-0.14633697 -0.15999004 -0.22174749 -0.08882054 -0.24999297 -0.15838198 -0.08848679 0.0696822
0.27776724 0.27364582 -0.14599453 0.3553569 -0.11738534 -0.22130175 -0.00067254156 -0.16019846
-0.23321825 -0.012368273 0.33981475 -0.1767464 -0.07999456 0.08414258 0.20654364 -0.0811169
0.33960497 -0.03594884 0.36452687 -0.20156015 0.21145587 0.44309548 0.4847709 0.07324516
-0.17104739 -0.14826947 0.30641085 0.31777734 -0.07035783 -0.10519253 0.016080521 0.060487483
-0.20301631 -0.17880847 0.0953228 -0.22107615 -0.13134827 0.64327127 -0.13661902 -0.13086446
-0.08101078 -0.22139442 0.08445128 -0.16396227 0.24783629 0.061423596 0.1726079 0.26267567
-0.07127799 0.3843864 0.00016797884 0.3305013 -0.21880607 -0.22159205 0.34401178 -0.0836304
-0.21805193 0.16217364 0.3831251 -0.19544795 0.3968432 -0.07855477 -0.1828916 0.3416985
0.23008496 0.35701507 -0.29883665 0.25047478 0.53766286 -0.08414919 -0.1747579 -0.21233138
-0.109587595 -0.24392699 0.17125562 -0.15429176 0.38733998 0.1752832 0.4369907 0.21134603
0.41863447 0.36494738 0.5042497 0.07121138 -0.20661381 -0.19422618 0.06183357 -0.25045747
0.084506646 -0.2194112 0.17363186 0.3098236 0.17295882 -0.0033963474 -0.08243436 -0.37801093
-0.1557621 0.22011518 -0.016601203 0.32419422 0.3110524 -0.0907709 -0.28913024 -0.20652206
-0.08617756 0.102490634 0.094123796 0.23593594 -0.17301318 -0.18213335 -0.20388308 -0.20234454
0.1377239 0.11186405 0.09457009 0.17312978 0.09031702 0.16108057 0.3622042 0.060978577
-0.26391515 0.5154979 -0.2086346 0.110955074 0.3231301 0.15576234 0.20609555 -0.12558407
-0.11332413 -0.22413479 -0.12980388 -0.25470504 0.14819312 -0.08220055 0.34823635 0.2755488
0.27761528 0.25422603 -0.21735908 -0.14697869 0.009538541 0.32165277 0.3632659 0.085252196
0.476992 0.41968465 0.06038383 -0.09774264 -0.07248694 -0.10309203 -0.22383997 -0.12701625
-0.09845278 -0.20538458 0.1392659 -0.07802359 -0.1742615 0.25971806 0.068519026 -0.15201314
-0.38809797 0.2271232 -0.105286025 -0.094863124 -0.24858056 -0.20724973 0.5022545 -0.2232539
-0.117776394 0.38777727 0.13713706 -0.1776626 0.13463454 0.26264715 0.4205045 -0.18863142
0.345144 0.14059089 -0.06673783 -0.03265076 -0.097325414 0.27305576 -0.05747836 -0.5830164
-0.23249005 -0.32952192 -0.115061015 0.24101932 -0.15612382 -0.20685773 -0.108899705 -0.33608547
0.76176727 -0.12356859 0.05733716 0.19551006 -0.51104283 -0.19339006 -0.09031839 0.2613202
-0.31237298 -0.08206642 0.34033105 0.4260502 -0.2031012 0.6186768 0.27222368 0.13518728
0.2686319 0.06504731 -0.19878405 -0.18076989 0.032279674 0.3386634 0.31898496 0.3622296
-0.20326829 0.2781286 0.23337533 -0.13689226 0.24547629 -0.1645245 -0.19224271 0.22006072
-0.15058802 -0.21304491 0.3462015 -0.16218396 0.2757273 0.0073560234 0.45107505 -0.20340018
-0.15507442 -0.18140018 0.10163497 -0.11893498 0.08919038 -0.20635489 0.23548815 0.12367358
-0.21044874 0.35492763 -0.16254918 -0.098844804 0.19531713 -0.04688937 -0.26732364 -0.19055697
00000000: 5cd9 15be 6ed4 23be c611 63be 8be7 b5bd
00000010: 28fe 7fbe e32e 22be 9038 b5bd 8bb5 8e3d
00000020: 8237 8e3e 4e1b 8c3e 977f 15be 57f1 b53e
00000030: ba67 f0bd ed9c 62be 804d 30ba 110b 24be
00000040: c4d0 6ebe 4ca4 4abc 33fc ad3e 02fd 34be
00000050: 30d4 a3bd f252 ac3d 2d80 533e 9e20 a6bd
00000060: b4e0 ad3e 173f 13bd 44a3 ba3e c965 4ebe
00000070: e387 583e 69dd e23e e433 f83e 8f01 963d
00000080: 0c27 2fbe f4d3 17be e2e1 9c3e b6b3 a23e
00000090: c417 90bd 2e6f d7bd 4cbb 833c b9c1 773d
000000a0: 82e3 4fbe 9119 37be 9a38 c33d c961 62be
000000b0: 2980 06be 6dad 243f dbe5 0bbe 5501 06be
000000c0: fbe8 a5bd 38b5 62be cbf4 ac3d bae5 27be
000000d0: ccc8 7d3e 4f97 7b3d 20c0 303e 6d7d 863e
000000e0: 32fa 91bd 4bce c43e 7a23 3039 7737 a93e
000000f0: b30e 60be 07e9 62be 5022 b03e 6a46 abbd
00000100: 0149 5fbe d910 263e f928 c43e 8223 48be
00000110: 082f cb3e 53e1 a0bd f047 3bbe 1bf3 ae3e
00000120: 649b 6b3e aeca b63e 1e01 99be 3b3e 803e
00000130: 46a4 093f 6956 acbd bcf3 32be 666d 59be
00000140: 766f e0bd ffc7 79be a25d 2f3e a9fe 1dbe
00000150: 6d51 c63e 707d 333e 3fbd df3e 186b 583e
00000160: 4257 d63e 62da ba3e 8216 013f 46d7 913d
00000170: 9292 53be 3ae3 46be 3345 7d3d f63b 80be
00000180: d211 ad3d 54ad 60be 8dcc 313e 33a1 9e3e
00000190: 1e1c 313e 4195 5ebb 59d3 a8bd a68a c1be
000001a0: 1a80 1fbe e065 613e 3fff 87bc c9fc a53e
000001b0: 4342 9f3e 18e6 b9bd e108 94be 857a 53be
000001c0: dc7d b0bd 9ce6 d13d fac3 c03d 3199 713e
000001d0: 5e2a 31be 2a81 3abe bac6 50be 6833 4fbe
000001e0: 7e07 0d3e fb18 e53d f7ad c13d ef48 313e
000001f0: 21f8 b83d 4ef2 243e d472 b93e acc4 793d
00000200: e31f 87be acf7 033f 4fa4 55be 6a3c e33d
00000210: 4f71 a53e 2a80 1f3e b60a 533e 1c99 00be
00000220: 7b16 e8bd 9783 65be 4feb 04be b368 82be
00000230: f0bf 173e c358 a8bd 094c b23e bb14 8d3e
00000240: 9723 8e3e ea29 823e 6193 5ebe 9581 16be
00000250: 8a47 1c3c acaf a43e fdfd b93e b498 ae3d
00000260: 4c38 f43e e8e0 d63e 0955 773d 4b2d c8bd
00000270: 0874 94bd ea21 d3bd 4e36 65be 8c10 02be
00000280: 9ca1 c9bd 5650 52be b89b 0e3e d5ca 9fbd
00000290: 9b71 32be c4f9 843e b453 8c3d 55a9 1bbe
000002a0: c7b4 c6be fc92 683e 33a0 d7bd 9947 c2bd
000002b0: e78b 7ebe 4639 54be c093 003f ac9c 64be
000002c0: c034 f1bd be8a c63e a86d 0c3e 2fed 35be
000002d0: a3dd 093e b079 863e 5e4c d73e 9828 41be
000002e0: b7b6 b03e 0ff7 0f3e d8ad 88bd cebc 05bd
000002f0: 8c52 c7bd f7cd 8b3e 6e6e 6bbd 9040 15bf
00000300: df11 6ebe 19b7 a8be 1ca5 ebbd c5cd 763e
00000310: ecde 1fbe 83d2 53be cf06 dfbd 6513 acbe
00000320: 2e03 433f 8711 fdbd 5fda 6a3d ca33 483e
00000330: b4d3 02bf 0b08 46be d9f8 b8bd c3cb 853e
00000340: 5aef 9fbe 7012 a8bd df3f ae3e 4023 da3e
00000350: c3f9 4fbe 9a61 1e3f e760 8b3e 896e 0a3e
00000360: 1f8a 893e 8637 853d 0c8e 4bbe be1b 39be
00000370: b137 043d 4a65 ad3e ff51 a33e 2876 b93e
00000380: 9025 50be df66 8e3e f1f9 6e3e 7c2d 0cbe
00000390: 235e 7b3e 1c79 28be 46db 44be 9957 613e
000003a0: bf33 1abe 7228 5abe 5341 b13e 8d13 26be
000003b0: 212c 8d3e cc0a f13b 4ff3 e63e 2348 50be
000003c0: d4cb 1ebe f8c0 39be ff25 d03d 2f94 f3bd
000003d0: 72a9 b63d b24e 53be ce23 713e 9348 fd3d
000003e0: e07f 57be 13b9 b53e 4b73 26be 256f cabd
000003f0: 3701 483e 110f 40bd a5de 88be 5e21 43be

fc3.bias f4 [2]
-0.039768428 -0.059155755
00000000: 38e4 22bd 4e4d 72bd
